Assignment4/RNN.pth (torch, 200407 bytes, 6 tensors)

i2h_layer.weight f4 [128, 205]
0.07787488 0.0060439194 -0.061500065 -0.013648483 0.025934126 -0.14343156 0.067495346 0.19785638
-0.04326001 -0.03567127 0.012370372 -0.11187216 -0.17902112 0.009194759 0.031668894 0.07942058
-0.008364519 -0.004890888 -0.10751015 -0.004212297 0.301337 0.10697775 -0.20130092 0.05780146
-0.03444637 -0.0052455845 0.029739052 0.06109433 0.078621306 0.04969014 0.073005006 -0.13682991
-0.27766111 0.078137144 -0.091596104 0.05445392 -0.044327024 0.071503416 0.02155577 -0.12955059
-0.057536036 -0.0012832934 -0.1810809 -0.034760583 -0.10470581 -0.10748557 0.10151449 0.09073182
-0.1641119 -0.16914803 -0.06967917 0.11000556 -0.09167747 0.11018961 0.09005063 0.06449008
0.014483745 0.01824053 -0.16075751 -0.09880376 -0.13361263 0.045037117 0.07426822 0.0909819
-0.07364975 0.02738059 -0.017685164 -0.08592548 0.12686089 0.09262982 -0.0029816658 -0.032784298
0.024530176 0.056882635 -0.044306967 0.06198487 0.049291592 -0.09757152 0.06528075 -0.027997456
0.0114230225 -0.039817482 -0.036284134 -0.05801712 -0.009481893 0.029069427 -0.0030405028 0.063683756
-0.029985996 -0.06610306 0.009622915 -0.05289536 -0.005689988 0.025659217 0.089853376 0.0766314
0.041396808 0.037617534 0.00077045645 -0.044487294 -0.016766297 0.11326882 0.061920412 0.008954793
0.04352315 -0.0062749702 -0.00015896339 -0.0708547 0.0100143915 -0.05029366 0.017036328 -0.05825718
0.09509744 -3.3177967e-05 -0.07308616 -0.06200734 -0.008542607 -0.051421605 -0.050217077 -0.09020682
0.010560651 0.015917279 -0.014557378 -0.052584194 -0.020286782 0.09677175 0.008291425 -0.03350441
-0.011248244 -0.09803527 0.042768236 -0.020809392 0.014555363 -0.0023422139 -0.00024837282 -0.05184644
-0.0988679 -0.04209858 0.119755805 0.031158917 0.03521791 -0.04941295 0.030027166 -0.076283455
0.01174624 -0.011722341 0.0055334843 -0.049310494 0.03370406 -0.08845632 0.0030826656 0.0027215902
-0.13597578 0.03961805 0.0048193596 0.075381 -0.05460737 -0.02105174 -0.04022877 -0.044310246
-0.009815017 0.09593044 0.052625533 -0.04879375 -0.043642454 0.05102549 -0.012595804 0.064026564
0.09240825 0.017343588 -0.048806902 -0.08215731 -0.01690823 -0.014279199 0.11708668 -0.07646995
0.07755814 -0.09029996 0.04822442 -0.025989654 0.04253513 0.05891345 0.042802155 0.09674384
0.016856747 0.0009801346 -0.0060535017 0.046119887 -0.003243649 -0.076111786 0.06316127 -0.06989692
0.010273147 0.045030918 0.03395411 0.0594783 0.006647184 0.059854236 -0.030993786 -0.066662505
-0.03724592 0.060347196 0.10593174 0.06939521 -0.0043327096 0.17248484 0.0836149 0.09488742
0.036030024 0.09887236 0.04342474 -0.22710052 0.108886845 -0.001073282 0.06443901 -0.055412605
0.05250416 -0.19999821 0.08675823 -0.12639527 0.0049411873 -0.19505128 -0.032410786 0.07276165
-0.14065509 -0.019578276 -0.10000853 0.06283096 0.017323198 -0.091636345 -0.053119563 -0.04887629
0.059659705 -0.11984483 0.2414745 0.16274017 -0.08217931 -0.080730475 0.0136843035 -0.022248045
0.07048158 0.010701084 -0.05156284 0.2209122 0.0631255 0.05555465 0.058407906 -0.13245809
0.09655778 0.122813046 0.026996508 -0.035030026 -0.14043237 0.12592202 -0.0638605 -0.2140154
00000000: dd7c 9f3d 120c c63b 7ee7 7bbd e39d 5fbc
00000010: ce73 d43c b9df 12be 003b 8a3d dd9a 4a3e
00000020: 6931 31bd 0a1c 12bd 1aad 4a3c 3b1d e5bd
00000030: 5051 37be 9da5 163c 3eb7 013d 42a7 a23d
00000040: 560b 09bc be43 a0bb 482e dcbd 4f07 8abb
00000050: d848 9a3e 2717 db3d d421 4ebe 39c1 6c3d
00000060: a317 0dbd 27e3 abbb 509f f33c 0c3e 7a3d
00000070: 3504 a13d e387 4b3d a683 953d 241d 0cbe
00000080: 9929 8ebe 5e06 a03d bd96 bbbd 130b 5f3d
00000090: 4190 35bd 6270 923d ba95 b03c e9a8 04be
000000a0: e8aa 6bbd 2e34 a8ba 456d 39be 1d61 0ebd
000000b0: 0070 d6bd 6521 dcbd d4e6 cf3d 9bd1 b93d
000000c0: f30c 28be 2435 2dbe f4b3 8ebd 984a e13d
000000d0: 66c1 bbbd 17ab e13d 776c b83d 6013 843d
000000e0: 3b4d 6d3c 2a6d 953c 9e9d 24be a059 cabd
000000f0: c0d1 08be d778 383d f019 983d b854 ba3d
00000100: aed5 96bd 424d e03c 7ae0 90bc b3f9 afbd
00000110: d2e7 013e b4b4 bd3d 0d68 43bb d448 06bd
00000120: 82f3 c83c c4fd 683d 397b 35bd d9e3 7d3d
00000130: fbe5 493d 94d3 c7bd eab1 853d ec5a e5bc
00000140: a127 3b3c a817 23bd ac9e 14bd 5ca3 6dbd
00000150: f159 1bbc 0223 ee3c 2c43 47bb a16c 823d
00000160: 31a5 f5bc 0b61 87bd 6ea9 1d3c cea8 58bd
00000170: 1473 babb 4733 d23c 0c05 b83d ecf0 9c3d
00000180: b38f 293d d814 1a3d 75f8 493a 4f38 36bd
00000190: 7959 89bc 7cf9 e73d 42a0 7d3d 20b7 123c
000001a0: 5545 323d 449e cdbb 69af 26b9 451c 91bd
000001b0: 6713 243c ba00 4ebd c58f 8b3c 159f 6ebd
000001c0: 72c2 c23d 9228 0bb8 32ae 95bd 69fb 7dbd
000001d0: 4af6 0bbc 769f 52bd 6cb0 4dbd 5abe b8bd
000001e0: 9506 2d3c f464 823c 1282 6ebc 8662 57bd
000001f0: 7730 a6bc 4430 c63d c2d8 073c ec3b 09bd
00000200: 8e4a 38bc b7c6 c8bd bf2d 2f3d 7578 aabc
00000210: 9e79 6e3c d47f 19bb 0938 82b9 ef5c 54bd
00000220: 417b cabd 906f 2cbd 8842 f53d fc40 ff3c
00000230: a840 103d 3c65 4abd 88fb f53c 803a 9cbd
00000240: 4d73 403c 100f 40bc 3b52 b53b cdf9 49bd
00000250: 450d 0a3d 9628 b5bd 8c06 4a3b b55c 323b
00000260: 3c3d 0bbe 8946 223d b8eb 9d3b 5b61 9a3d
00000270: faab 5fbd b374 acbc ecc6 24bd a97e 35bd
00000280: 2acf 20bc 2e77 c43d df8d 573d f5db 47bd
00000290: 6ec2 32bd 1b00 513d a25e 4ebc 5c20 833d
000002a0: 8940 bd3d 2414 8e3c bfe9 47bd 1742 a8bd
000002b0: 2183 8abc 4df3 69bc 24cb ef3d 479c 9cbd
000002c0: cdd6 9e3d 2fef b8bd f886 453d 41e8 d4bc
000002d0: 5139 2e3d 3b4f 713d 5051 2f3d a221 c63d
000002e0: 2917 8a3c dc77 803a 745c c6bb 35e8 3c3d
000002f0: 6693 54bb 7fe0 9bbd b25a 813d 1e26 8fbd
00000300: b450 283c 5772 383d 7713 0b3d 859f 733d
00000310: 9fd0 d93b b729 753d aee6 fdbc 5a86 88bd
00000320: 2e8f 18bd 9f2e 773d bdf2 d83d 131f 8e3d
00000330: 67f9 8dbb de9f 303e 4a3e ab3d 5654 c23d
00000340: 3894 133d 987d ca3d 24de 313d 0a8d 68be
00000350: 1100 df3d 5ead 8cba 9af8 833d 54f8 62bd
00000360: 9a0e 573d 55cc 4cbe 4dae b13d c36d 01be
00000370: afe9 a13b 86bb 47be 2cc1 04bd 0f04 953d
00000380: e307 10be 9f62 a0bc 46d1 ccbd 85ad 803d
00000390: 61e9 8d3c d6ab bbbd e693 59bd 8132 48bd
000003a0: bc5d 743d 3571 f5bd 1745 773e 5ca5 263e
000003b0: a04d a8bd 0556 a5bd 2134 603c 8841 b6bc
000003c0: a658 903d 9953 2f3c 8e33 53bd cf36 623e
000003d0: f147 813d 468d 633d 213d 6f3d 18a3 07be
000003e0: 16c0 c53d 6885 fb3d c827 dd3c a57b 0fbd
000003f0: 81cd 0fbe b4f1 003e 4bc9 82bd da26 5bbe

i2h_layer.bias f4 [128]
-0.07928569 -0.11420419 0.064421356 -0.05027584 -0.19469176 -0.09437996 0.24587171 0.33554372
0.06342768 -0.0855124 -0.16667561 -0.13240212 -0.0014006147 0.16454268 0.033780705 0.22930919
-0.054625325 -0.087943375 0.08059539 0.055352353 -0.24056879 -0.008760637 -0.07779132 -0.06444265
0.1253799 -0.09080522 0.08944342 -0.009650653 0.19503614 -0.12574703 -0.25840455 0.28456172
-0.054775402 0.102071576 0.0802456 0.28786394 -0.120910965 0.15900129 0.085280225 0.07223145
-0.024314532 0.3063616 -0.22059998 -0.12116715 0.15237182 0.17661512 -0.24300864 -0.20638892
0.15279645 0.089276284 -0.11903513 -0.11942376 -0.026000217 0.13621394 -0.07586273 0.008096232
0.022892844 -0.37014893 -0.23749396 -0.120604075 -0.1936417 -0.20900689 -0.043209523 0.059035894
0.16491584 -0.078901224 -0.13364771 0.14983943 0.0023414767 0.23092745 -0.27249646 -0.29903403
-0.11313702 0.102891624 -0.026592372 0.005493529 0.09516045 0.0814395 -0.075486705 -0.17677467
0.14076169 -0.15954389 -0.012202706 -0.17525876 -0.11338759 -0.099895425 0.06290554 0.11924818
-0.11418751 -0.17131187 0.01598002 0.04102114 -0.10279959 -0.08290682 -0.1143027 0.17033182
0.03916458 -0.11392078 0.038054343 -0.07099514 -0.10545718 0.15640172 -0.25055924 0.09984034
-0.033067845 -0.18010186 -0.11217195 0.19891402 0.2172114 -0.08426667 -0.21057104 -0.10264768
-0.10561653 0.046582803 -0.14901946 -0.14460059 -0.10748827 0.05311085 -0.053497244 -0.10397657
-0.21240298 0.23476669 -0.042022284 0.22057518 -0.050551772 -0.16884395 0.10736249 0.06737348
00000000: 8960 a2bd e3e3 e9bd 58ef 833d 0aee 4dbd
00000010: 475d 47be 484a c1bd cbc5 7b3e 63cc ab3e
00000020: 5fe6 813d 2021 afbd 03ad 2abe 6c94 07be
00000030: d594 b7ba e07d 283e a35d 0a3d 07d0 6a3e
00000040: cebe 5fbd a81b b4bd 320f a53d 26b9 623d
00000050: aa57 76be c688 0fbc 0e51 9fbd 82fa 83bd
00000060: 9763 003e 16f8 b9bd 1d2e b73d c61d 1ebc
00000070: 8eb7 473e d4c3 00be 9a4d 84be 13b2 913e
00000080: 2c5c 60bd e70a d13d ce57 a43d e762 933e
00000090: 2ba0 f7bd 3cd1 223e 66a7 ae3d 15ee 933d
000000a0: 452f c7bc 6ddb 9c3e f6e4 61be 7c26 f8bd
000000b0: 5c07 1c3e 98da 343e 42d7 78be 9e57 53be
000000c0: ac76 1c3e 7cd6 b63d b1c8 f3bd 7294 f4bd
000000d0: 68fe d4bc ab7b 0b3e eb5d 9bbd 0fa6 043c
000000e0: c689 bb3c 2984 bdbe 9e31 73be 45ff f6bd
000000f0: 034a 46be e705 56be 78fc 30bd 9fcf 713d
00000100: b3df 283e f796 a1bd f2da 08be 826f 193e
00000110: 7673 193b 3f78 6c3e a884 8bbe fd1a 99be
00000120: 62b4 e7bd d8b8 d23d 3fd8 d9bc 1003 b43b
00000130: 7be3 c23d c1c9 a63d c698 9abd 6b04 35be
00000140: d523 103e 795f 23be dced 47bc 0877 33be
00000150: c137 e8bd f995 ccbd 9fd4 803d 6438 f43d
00000160: 24db e9bd 616c 2fbe 88e8 823c c805 283d
00000170: 9788 d2bd 0dcb a9bd 8917 eabd 776b 2e3e
00000180: 0a6b 203d 4c4f e9bd dfde 1b3d e665 91bd
00000190: eff9 d7bd c627 203e 4d49 80be 1879 cc3d
000001a0: 2672 07bd 9f6c 38be 68ba e5bd 1eb0 4b3e
000001b0: aa6c 5e3e 0194 acbd ef9f 57be f238 d2bd
000001c0: 7b4d d8bd 9ccd 3e3d 8f98 18be 2d12 14be
000001d0: cf22 dcbd c38a 593d ed1f 5bbd abf1 d4bd
000001e0: 2b80 59be ae66 703e 8f1f 2cbd 76de 613e
000001f0: 600f 4fbd 6ee5 2cbe dde0 db3d 1bfb 893d

i2o_layer.weight f4 [59, 205]
-0.12812288 -0.020065516 0.14129877 0.13163383 -0.017335253 0.064254574 -0.061393432 -0.1299269
-0.010210886 0.1064061 -0.02981055 0.025708 -0.1314596 0.07914315 -0.011706754 -0.016281165
-0.034114968 -0.0019021328 -0.030857928 0.0037968722 -0.13891755 -0.019849608 0.09884536 -0.016240207
-0.09299883 0.089460954 0.17992014 0.041864116 -0.06630258 0.040211953 -0.122304454 -0.15463717
0.0042585456 0.002245034 -0.08172585 -0.08483772 -0.06919498 0.03220708 0.16903725 0.009617173
0.07285704 0.01969623 0.073364615 -0.05143755 -0.01668408 0.10222774 -0.019129738 -0.1338456
0.09435163 0.056649152 0.0562978 -0.0017218099 0.03643906 -0.024900222 0.05433886 -0.059321027
-0.06557263 -0.090736195 -0.0838505 -0.005237022 -0.118374005 -0.1373391 0.15714978 0.058873776
-0.02953828 0.012352495 -0.062294316 -0.018010387 0.029987833 0.018709961 0.00020997014 -0.062222876
-0.002031595 -0.054191258 -0.0442572 0.04016775 -0.006283669 0.02675664 -0.0036335022 -0.07975005
-0.026411254 0.06154323 0.0026621684 0.0653574 0.0059225326 0.08395016 0.07139043 0.0054693683
0.020095646 0.027833221 0.04152275 -0.05155306 -0.01905757 0.07055437 -0.01112454 0.005331357
0.052864667 0.03280371 0.10610492 0.08283285 -0.03198846 -0.009620574 -0.015818018 -0.0132399695
0.0127852475 0.009663441 0.04889922 0.0081655495 -0.027711824 0.006663431 -0.029708616 -0.048353814
-0.043566503 0.026761374 -0.002570865 -0.07645318 0.011609787 -0.0064345775 -0.060011923 -0.015385283
-0.04857919 -0.00789422 0.028864283 -0.03981069 0.014227738 -0.035050496 -0.06505791 -0.01241956
0.029669186 -0.0005693165 -0.0031103548 -0.03477131 0.07708081 -0.024688803 -0.00025821687 -0.06353513
-0.051081352 -0.0724077 -0.047829755 0.027744412 0.10181595 0.0677984 -0.03400833 0.018620174
0.047499534 -0.040377032 0.06342682 -0.069689654 -0.042222682 0.109397046 0.06832751 0.117917925
-0.018099362 0.12082788 -0.048295055 -0.091431804 -0.0050158356 -0.014796204 0.08793605 -0.05166815
0.05858802 -0.012574427 0.052378714 -0.03741915 0.06121134 -0.062273003 0.016805297 -0.03152561
-0.03131165 0.028497195 -0.038589135 -0.046521552 0.04929205 0.014541535 -0.05776774 0.018126002
-0.05163268 -0.022568533 -0.081368886 0.044327263 0.017022293 0.015036461 0.02731675 0.005397962
0.07152132 0.018664913 0.008223191 0.006223114 0.060373433 -0.02212414 -0.05176321 0.027834306
-0.008945133 0.07307475 -0.08032848 0.0011282207 0.01605653 -0.028015044 -0.037623912 0.041319467
0.033542935 -0.0020764503 0.11138554 0.00014480882 -0.068341754 -0.05697699 -0.2140655 -0.1058626
0.0052918196 -0.15549614 -0.017047497 0.10154031 -0.13552487 0.039812412 -0.024333991 -0.06416191
0.060011752 -0.072178334 0.095360644 0.09670618 0.0018034166 0.09465836 0.07302352 0.044987552
0.0740022 -0.37753165 -0.058099475 0.05219266 -0.035964757 -0.0615327 -0.019647691 0.0040667863
0.03912923 0.06694991 -0.12519448 -0.10220207 0.01775485 0.28188333 -0.055004846 0.07237269
0.07127911 -0.077097744 0.0043104454 -0.01509128 0.1266105 0.05727048 0.049947146 0.11095195
0.0017564874 0.0053170123 0.06660216 -0.22627175 0.022412496 0.065958925 0.07892274 0.07033218
00000000: a532 03be 7060 a4bc a0b0 103e 05cb 063e
00000010: a902 8ebc e797 833d ae77 7bbd 8f0b 05be
00000020: 8f4b 27bc 71eb d93d 4135 f4bc 9599 d23c
00000030: 589d 06be ce15 a23d afcd 3fbc 1460 85bc
00000040: 23bc 0bbd fc50 f9ba c4c9 fcbc f2d4 783b
00000050: 6740 0ebe a59b a2bc 706f ca3d 2f0a 85bc
00000060: 2c76 bebd 4e37 b73d fc3c 383e b579 2b3d
00000070: a6c9 87bd 4ab5 243d c27a fabd 3559 1ebe
00000080: 458b 8b3b 6c21 133b e25f a7bd 66bf adbd
00000090: 19b6 8dbd 92eb 033d 1a18 2d3e 5991 1d3c
000000a0: 1236 953d fd59 a13c 3040 963d 2eb0 52bd
000000b0: 0dad 88bc c75c d13d f8b5 9cbc d20e 09be
000000c0: 6d3b c13d f108 683d 8698 663d 5aae e1ba
000000d0: 2041 153d 8dfb cbbc 6d92 5e3d 9bfa 72bd
000000e0: f14a 86bd e6d3 b9bd d0b9 abbd 539b abbb
000000f0: 126e f2bd 9fa2 0cbe dfeb 203e a125 713d
00000100: 43fa f1bc 1f62 4a3c 5328 7fbd 858a 93bc
00000110: 0ba9 f53c a245 993c 6e2b 5c39 6add 7ebd
00000120: 8224 05bb a7f7 5dbd 0a47 35bd f086 243d
00000130: 3ce7 cdbb be30 db3c 0d20 6ebb ff53 a3bd
00000140: 6a5c d8bc c114 7c3d c677 2e3b 1ada 853d
00000150: ce11 c23b 10ee ab3d 2535 923d 6338 b33b
00000160: a09f a43c 7f02 e43c c213 2a3d 4d29 53bd
00000170: 9f1e 9cbc cf7e 903d b443 36bc aab2 ae3b
00000180: 9f88 583d 2f5d 063d 894d d93d 45a4 a93d
00000190: 5506 03bd 9d9f 1dbc ca94 81bc 75ec 58bc
000001a0: 3779 513c 6953 1e3c 8c4a 483d ccc8 053c
000001b0: e803 e3bc e958 da3b 7c5f f3bc a60e 46bd
000001c0: ca72 32bd ab3a db3c f57b 28bb 7c93 9cbd
000001d0: fa36 3e3c 26d9 d2bb 10cf 75bd 8e12 7cbc
000001e0: f9fa 46bd c256 01bc ca74 ec3c 8910 23bd
000001f0: 751b 693c 1c91 0fbd 153d 85bd 697b 4bbc
00000200: cb0c f33c 2f3e 15ba 18d7 4bbb 5c6c 0ebd
00000210: 8bdc 9d3d 2c40 cabc 4861 87b9 b51e 82bd
00000220: ae3a 51bd 7d4a 94bd 22e9 43bd 4048 e33c
00000230: e184 d03d e3d9 8a3d 524c 0bbd 5689 983c
00000240: df8e 423d 6362 25bd ece5 813d 73b9 8ebd
00000250: b1f1 2cbd 8f0b e03d 4bef 8b3d f47e f13d
00000260: 1d45 94bc 9c74 f73d 09d1 45bd 9940 bbbd
00000270: e15b a4bb c76b 72bc d117 b43d fba1 53bd
00000280: fef9 6f3d f804 4ebc 108b 563d d344 19bd
00000290: beb8 7a3d fa11 7fbd 43ab 893c ff20 01bd
000002a0: a540 00bd f372 e93c a40f 1ebd 628d 3ebd
000002b0: 76e6 493d 9e3f 6e3c de9d 6cbd fb7c 943c
000002c0: ca7c 53bd a5e1 b8bc bba4 a6bd 8190 353d
000002d0: 5672 8b3c 7d5b 763c 60c7 df3c 63e1 b03b
000002e0: c579 923d 29e7 983c 90ba 063c 44eb cb3b
000002f0: 224a 773d af3d b5bc a905 54bd c504 e43c
00000300: 9b8e 12bc 37a8 953d 4283 a4bd cee0 933a
00000310: fc88 833c ce7f e5bc 881b 1abd 9a3e 293d
00000320: 5164 093d 0e15 08bb 1a1e e43d d2d7 1739
00000330: c3f6 8bbd b460 69bd fd33 5bbe 7ece d8bd
00000340: 0067 ad3b 613a 1fbe 31a7 8bbc 5ef4 cf3d
00000350: 08c7 0abe 5712 233d 1458 c7bc 5267 83bd
00000360: e2ce 753d 3cd2 93bd 714c c33d e40d c63d
00000370: 9f60 ec3a 3edc c13d 5b8d 953d de44 383d
00000380: 778e 973d d44b c1be b7f9 6dbd f8c7 553d
00000390: c84f 13bd b609 7cbd 32f4 a0bc ad42 853b
000003a0: f945 203d 091d 893d fb32 00be 524f d1bd
000003b0: 9f72 913c 0353 903e c34c 61bd 2238 943d
000003c0: c8fa 913d 6ce5 9dbd a33e 8d3b 6b41 77bc
000003d0: 2fa6 013e 7394 6a3d 6195 4c3d c73a e33d
000003e0: f039 e63a 553a ae3b b766 883d c8b3 67be
000003f0: 699a b73c 7915 873d 3fa2 a13d 510a 903d

i2o_layer.bias f4 [59]
0.13207446 -0.08207323 0.48201397 0.4998266 -0.020934802 -0.16119677 -0.18801017 0.16914861
0.2976793 0.38571677 0.026139757 0.20724125 -0.4104048 -0.24557903 -0.21972853 -0.21123901
-0.63901407 -0.43648306 0.0389562 0.026936347 -0.16935174 -0.16794139 0.110931404 0.5946015
-0.31276822 0.23385455 -0.56334543 -0.008114898 -0.03733258 -0.54446995 -0.45251122 -0.070826106
-0.09892014 0.23111801 0.2717637 -0.12181715 0.241972 -0.36911154 0.30683646 0.14118983
-0.12297294 -0.046984687 0.3991272 -0.08530903 -0.38927138 -0.033321526 0.039720267 0.42363527
-0.12687393 -0.0010144433 0.09566209 0.09348836 -0.018630031 -0.2505656 -0.4287781 -0.17863902
0.06035518 0.3596443 0.06858105
00000000: 873e 073e 0216 a8bd 89ca f63e 46e9 ff3e
00000010: 767f abbc c410 25be bd85 40be 4b35 2d3e
00000020: 6c69 983e ab7c c53e 0b23 d63c 0d37 543e
00000030: 9420 d2be 1279 7bbe 8400 61be 0a4f 58be
00000040: 6d96 23bf b57a dfbe 8990 1f3d 9da9 dc3c
00000050: 8b6a 2dbe d4f8 2bbe 0130 e33d ce37 183f
00000060: 2823 a0be 9177 6f3e 6837 10bf 59f4 04bc
00000070: 0cea 18bd 6262 0bbf 8daf e7be 470d 91bd
00000080: a496 cabd 33aa 6c3e 9d24 8b3e 457b f9bd
00000090: 82c7 773e 30fc bcbe ab19 9d3e 1194 103e
000000a0: 3dd9 fbbd 0473 40bd 665a cc3e 80b6 aebd
000000b0: 944e c7be 277c 08bd b8b1 223d b9e6 d83e
000000c0: 3deb 01be 12f7 84ba 7cea c33d d376 bf3d
000000d0: 029e 98bc 224a 80be ce88 dbbe 26ed 36be
000000e0: fe36 773d 4c23 b83e 3974 8c3d

o2o_layer.weight f4 [59, 187]
0.18545195 -0.048528366 0.2057078 -0.1363526 -0.24466796 -0.18506862 0.39089435 -0.071806595
-0.043568153 -0.20298517 -0.012608804 0.0047849463 0.30877814 -0.036119755 0.021524629 0.13324624
0.06241171 0.21129878 -0.006581624 0.104280405 -0.033938497 -0.19184047 -0.11763553 -0.18775526
0.21288998 -0.008243305 0.04097259 0.008686279 -0.013791765 -0.017047614 -0.09172327 0.17828374
0.07112966 -0.28482795 -0.120583184 -0.003311225 -0.05212218 -0.079375796 0.06096066 0.038811237
0.0051410496 0.113855325 -0.11610349 0.10007251 -0.045479707 0.20875023 -0.2479519 -0.16040349
0.020291293 -0.15542659 -0.12340988 0.041475028 -0.0563355 -0.20938314 -0.05445717 -0.008410454
0.034779042 -0.22847457 0.11537724 -0.11211785 0.036056187 -0.05525372 0.36213264 -0.15103967
-0.18542068 -0.20494519 -0.12687522 0.38079563 -0.11452424 -0.011752974 -0.36011443 -0.15181334
0.115560524 0.10730856 0.0031376285 -0.017742475 0.1973814 0.18190204 0.07951689 -0.30199105
0.045007717 -0.1776834 0.2464179 -0.10212583 0.007297209 -0.003472993 0.025516668 0.000224535
-0.026870027 -0.070238374 -0.08295328 -0.09535189 -0.06462301 -0.21481621 -0.108730145 0.032607026
0.36897728 -0.2232584 0.15753452 -0.071012296 -0.055428058 0.10161734 0.034290265 -0.260635
-0.056397434 -0.027276395 -0.14780252 -0.010818014 0.22280166 -0.016887229 -0.2055248 0.34951645
0.16031598 0.1356147 -0.059542563 0.019783553 -0.26008666 0.017693305 -0.034492947 0.017373519
-0.32623962 -0.03242163 -0.15764453 0.27388465 -0.3377783 -0.13412745 -0.19260415 -0.20018114
0.05560246 -0.19786848 -0.06167814 -0.02804593 0.21134426 0.106515594 -0.24586654 0.06625258
0.36445147 0.14490223 0.026972504 -0.1694604 -0.2812407 -0.197626 -0.015679423 -0.07628343
-0.1087634 -0.17114982 0.0311726 -0.4378172 0.07157699 -0.12538393 -0.004252467 0.06673352
-0.18197292 -0.078743905 -0.18611228 0.024626672 -0.024670111 0.08139909 0.03306379 0.29037002
0.131949 -0.34754285 0.13952728 0.058703583 0.1566494 -0.24194492 -0.0031209942 0.025674645
0.072546266 -0.27149287 -0.13113014 0.15777266 0.25045317 -0.042726066 -0.1809724 -0.044137202
0.075701475 -0.2054401 -0.12833804 -0.10614894 0.24106276 -0.18517786 -0.13362059 0.1646068
0.12351368 0.23563334 0.06545727 0.056127515 0.13819121 -0.06376749 0.046362218 0.11570068
0.04960256 -0.010486673 0.13000667 -0.06072051 -0.147613 0.024989063 0.16798657 0.089220114
0.034479108 0.2799721 0.05508035 -0.046684608 0.02323785 0.009181347 0.061223865 0.05545141
0.0045228046 -0.20204587 0.30679274 -0.062258624 0.096422024 0.014170011 -0.09592826 -0.087351516
-0.1129202 -0.024015103 -0.12198196 0.044353314 -0.29759198 -0.06622121 -0.03835968 0.07107617
0.0052880473 0.024414359 -0.09126088 0.14619268 0.020856263 0.07210737 0.049862035 0.037939105
-0.0613223 0.02934809 0.049197134 0.11066194 0.024540264 -0.013880186 -0.07843781 0.06621783
-0.1295551 0.011342817 0.03811097 0.04420532 -0.081449665 0.07649114 -0.034559343 -0.06525907
0.009753655 -0.023276009 0.00437745 -0.04619144 0.05815381 0.22132972 -0.16230686 -0.025937608
00000000: 1ee7 3d3e aec5 46bd 11a5 523e 04a0 0bbe
00000010: 3d8a 7abe a182 3dbe 4e23 c83e 560f 93bd
00000020: 8574 32bd 58db 4fbe 2895 4ebc 0acb 9c3b
00000030: 2b18 9e3e 4ff2 13bd 6b54 b03c b471 083e
00000040: 6ca3 7f3d b55e 583e aaaa d7bb f790 d53d
00000050: 1803 0bbd d471 44be e6ea f0bd ea42 40be
00000060: d5ff 593e ed0e 07bc e0d2 273d e550 0e3c
00000070: dbf6 61bc 70a7 8bbc 69d9 bbbd 0390 363e
00000080: 6dac 913d f8d4 91be 51f4 f6bd 2301 59bb
00000090: 117e 55bd c78f a2bd e3b1 793d 88f8 1e3d
000000a0: 4076 a83b fb2c e93d abc7 edbd d1f2 cc3d
000000b0: ee48 3abd 9fc2 553e 1ae7 7dbe d040 24be
000000c0: ed39 a63c 2628 1fbe 52be fcbd b8e1 293d
000000d0: 0ec0 66bd 8968 56be 7b0e 5fbd 00cc 09bc
000000e0: 7874 0e3d 3df5 69be e74a ec3d 0b9e e5bd
000000f0: a7af 133d ba51 62bd 7369 b93e 25aa 1abe
00000100: ebde 3dbe 27dd 51be 94eb 01be a5f7 c23e
00000110: af8b eabd 8c8f 40bc eb60 b8be f574 1bbe
00000120: ffaa ec3d 97c4 db3d aca0 4d3b ab58 91bc
00000130: 5a1e 4a3e 8744 3a3e c0d9 a23d 929e 9abe
00000140: 035a 383d a3f2 35be f954 7c3e 5927 d1bd
00000150: 6d1d ef3b 279b 63bb 5508 d13c 2871 6b39
00000160: 881e dcbc 23d9 8fbd 69e3 a9bd da47 c3bd
00000170: 1259 84bd c8f8 5bbe e9ad debd f28e 053d
00000180: 97ea bc3e da9d 64be bb50 213e e56e 91bd
00000190: 8808 63bd c11c d03d f373 0c3d f371 85be
000001a0: ff00 67bd bf72 dfbc 8b59 17be 0a3e 31bc
000001b0: 1e26 643e 1657 8abc 1875 52be d2f3 b23e
000001c0: df29 243e 94de 0a3e e7e2 73bd 1e11 a23c
000001d0: 142a 85be 8df1 903c 7a48 0dbd e952 8e3c
000001e0: e108 a7be 8bcc 04bd 916d 21be 9c3a 8c3e
000001f0: 47f1 acbe b558 09be 063a 45be 49fc 4cbe
00000200: 68bf 633d 099e 4abe 38a2 7cbd 94c0 e5bc
00000210: a16a 583e d924 da3d 70c4 7bbe 6faf 873d
00000220: 6299 ba3e 4061 143e 71f5 dc3c 0787 2dbe
00000230: c8fe 8fbe 785e 4abe 2272 80bc 7d3a 9cbd
00000240: 58bf debd e641 2fbe ae5d ff3c 9329 e0be
00000250: f596 923d a564 00be 4758 8bbb 95ab 883d
00000260: 1c57 3abe 7c44 a1bd 3894 3ebe e0bd c93c
00000270: f918 cabc 91b4 a63d e66d 073d 61ab 943e
00000280: a31d 073e 23f1 b1be 3de0 0e3e 2b73 703d
00000290: b368 203e 69c0 77be 9889 4cbb a253 d23c
000002a0: 2393 943d 1d01 8bbe fb46 06be 288f 213e
000002b0: 663b 803e 8701 2fbd d450 39be 36c9 34bd
000002c0: 6009 9b3d e45e 52be 0c6b 03be 9e64 d9bd
000002d0: 28d9 763e 449f 3dbe d6d3 08be af8e 283e
000002e0: bef4 fc3d de49 713e 760e 863d f7e5 653d
000002f0: ff81 0d3e 8898 82bd 4fe6 3d3d 7af4 ec3d
00000300: 0e2c 4b3d 4bd0 2bbc 7820 053e 12b6 78bd
00000310: dd27 17be ddb5 cc3c ac04 2c3e 09b9 b63d
00000320: f739 0d3d 8158 8f3e ef9b 613d 5c38 3fbd
00000330: 4e5d be3c 5c6d 163c e0c5 7a3d 0521 633d
00000340: 0934 943b 1de5 4ebe f013 9d3e e602 7fbd
00000350: e978 c53d 5529 683c 0976 c4bd 5ae5 b2bd
00000360: b542 e7bd 52bb c4bc aed1 f9bd d2ab 353d
00000370: fa5d 98be fc9e 87bd 0a1f 1dbd 6290 913d
00000380: 5b47 ad3b 9f00 c83c fce6 babd 89b3 153e
00000390: c1da aa3c 07ad 933d 223c 4c3d 0966 1b3d
000003a0: 182d 7bbd 686b f03c ef82 493d baa2 e23d
000003b0: aa08 c93c b869 63bc 01a4 a0bd 379d 873d
000003c0: 18aa 04be 39d7 393c 401a 1c3d a310 353d
000003d0: 15cf a6bd 63a7 9c3d 198e 0dbd 8ca6 85bd
000003e0: cbcd 1f3c 54ad bebc b670 8f3b 3c33 3dbd
000003f0: b132 6e3d 42a4 623e c533 26be 1b7b d4bc

o2o_layer.bias f4 [59]
0.5698717 -0.09661528 0.09128829 -0.042650335 0.22435923 -0.18873762 -0.06060833 0.23862642
0.27054533 -0.15300156 -0.03240438 0.21098113 -0.11480288 0.09301094 0.32132047 -0.14649767
-0.29887286 0.25860488 0.112286575 -0.017859114 0.25346377 -0.08836784 -0.032030627 -0.28708583
-0.11298179 -0.09403886 -0.3389399 -0.24628551 -0.290788 -0.24776484 -0.2796286 -0.32298908
-0.31039488 -0.22266757 -0.305433 -0.2769666 -0.3284962 -0.28440064 -0.26520768 -0.22110869
-0.29407984 -0.3383519 -0.37389976 -0.31863627 -0.33611134 -0.3279803 -0.39481038 -0.28333038
-0.29056296 -0.27737436 -0.312319 -0.36710364 -0.15427954 -0.34068668 -0.3491957 -0.30169302
0.059351414 -0.27170607 -0.013117685
00000000: 1de3 113f 3bde c5bd 5bf5 ba3d 1eb2 2ebd
00000010: 6dbe 653e 6f44 41be 7140 78bd 7c5a 743e
00000020: eb84 8a3e 71ac 1cbe 75ba 04bd 700b 583e
00000030: c61d ebbd 857c be3d 1e84 a43e 7c03 16be
00000040: dd05 99be dc67 843e 81f6 e53d 474d 92bc
00000050: 01c6 813e 33fa b4bd 8c32 03bd eafc 92be
00000060: ff62 e7bd 7297 c0bd 8889 adbe 4532 7cbe
00000070: 2ae2 94be 11b6 7dbe 7b2b 8fbe d35e a5be
00000080: 14ec 9ebe f802 64be b761 9cbe 91ce 8dbe
00000090: a730 a8be f69c 91be 4dc9 87be 516a 62be
000000a0: a291 96be 763c adbe ca6f bfbe 4b24 a3be
000000b0: c916 acbe 09ed a7be 9624 cabe ae10 91be
000000c0: abc4 94be 0304 8ebe 47e8 9fbe 02f5 bbbe
000000d0: 75fb 1dbe 7c6e aebe c7c9 b2be 8277 9abe
000000e0: 781a 733d 0f1d 8bbe 8feb 56bc
