Assignment3/cifar_net.pth (torch, 212039 bytes, 10 tensors)

conv1.0.weight f4 [8, 3, 7, 7]
000000 17 ff 1c 3d fb fa 1d bd 6a 50 07 3c 40 74 a4 3d
       0.03832921 -0.03856943 0.008258918 0.080299854
000010 bd 29 81 bb c3 18 c5 bc 2a 93 9c bd bd 23 ac 3d
       -0.003941743 -0.024059659 -0.07645257 0.08405254
000020 3a 38 ca 3c c7 1f e0 bc 8f 62 c6 3c c8 2e 24 bc
       0.024685014 -0.027358903 0.024216918 -0.010020919
000030 e5 2b 49 3d 8d 6d 11 3d d9 be d0 3c c4 86 46 3d
       0.049114127 0.035504866 0.025481628 0.048468366
000040 1a 43 43 3d 49 e6 82 3d 0f 19 09 3d 07 f2 56 3d
       0.047671415 0.0639158 0.033471163 0.05247691
000050 36 c9 53 3c 93 85 f8 bc 58 2f a3 3d e7 cc 93 3d
       0.01292639 -0.03033713 0.079680145 0.072168164
000060 b1 e8 4a bd 17 70 9c bd b7 4c 31 bd 87 c2 3a bc
       -0.049538318 -0.07638567 -0.04328605 -0.011398918
000070 16 e9 13 bd 2c a0 64 bd bf ed 87 3d bb ef 1f 3d
       -0.03611096 -0.055816814 0.06637143 0.039046984
000080 a3 de 80 bc b4 6e 29 bd ab 6f d3 3c b4 16 a4 3d
       -0.015731161 -0.04136534 0.025810083 0.08012143
000090 d9 15 fd bc f1 e0 45 bd f3 36 87 3d ab b3 ad bb
       -0.030894207 -0.048310224 0.066022776 -0.005300959
0000a0 b5 78 59 3c 81 d7 3e bd 05 4f 1e bd cc 49 94 3d
       0.013273408 -0.04659224 -0.038649578 0.07240638
0000b0 99 84 4b 3c 72 1a aa 3d 9e 67 93 bd 7d 9c 8a 3c
       0.01242175 0.08305825 -0.07197498 0.016920323
0000c0 e0 6b 1e 3d db 5e de 3c 22 13 c1 bc f4 67 3d 3d
       0.038677096 0.02714484 -0.023568694 0.046241716
0000d0 eb 2b 80 bd 65 bd 29 3b f5 19 90 bd a8 be f4 bc
       -0.06258377 0.0025900241 -0.07036201 -0.029876068
0000e0 3e 23 8f 3d 6f 7d 2f 3d 3c a4 18 3d 29 7b 6c bb
       0.06989144 0.042844232 0.037266 -0.0036084151
0000f0 0c 6e 91 bd d9 89 25 3d a6 04 63 bd 99 60 36 bd
       -0.07101068 0.040414665 -0.055424355 -0.044525716
000100 e3 96 bc 3c de 95 f3 3b 8d 49 6e bc 7c 8d 6f 3d
       0.023021167 0.007433637 -0.014543903 0.05848454
000110 41 d0 70 3d cc 43 95 3d 60 96 b8 bc 2a 65 66 3d
       0.058792356 0.07288322 -0.022532642 0.05624882
000120 f3 7c c3 bc 79 6c 97 bd 67 c0 3e bd 0b ac 06 3d
       -0.023863291 -0.073937364 -0.046570208 0.032878917
000130 cf 5a 74 3d a8 da 9d 3d 3f 69 4f 3d ff 50 4c 3d
       0.059656914 0.07707721 0.05063748 0.04988193
000140 1f 05 6b bc a8 ab 8c 3d 13 68 d3 bb 46 8a 1d 3d
       -0.014344483 0.06868678 -0.0064516156 0.038461946
000150 35 5f c1 3c e4 65 ad 3d 85 9a 0b bd b8 57 8f bd
       0.023604969 0.084667 -0.03408291 -0.06999153
000160 c7 15 a8 3d 12 88 99 3d 89 b4 1a 3d 83 85 f5 3c
       0.08207279 0.074966565 0.037769828 0.02997089
000170 1b c2 3c bd 4d 02 2b ba 10 e8 33 3b c6 bf 93 bb
       -0.04608355 -0.0006523475 0.0027451552 -0.004508945
000180 c1 f0 e6 3c da d9 98 3d b8 c5 60 bb 29 41 75 bd
       0.028190972 0.07463427 -0.0034297537 -0.059876595
000190 94 09 cd 3c 82 11 23 bd c6 b9 55 3d 68 82 7b 3d
       0.025028981 -0.03981162 0.05217912 0.061403662
0001a0 47 dd 05 3d 24 dc c5 bc e3 9d 99 bd cd 84 a1 3c
       0.03268173 -0.024152823 -0.075008176 0.019716645
0001b0 cc c9 20 bd a1 af 1a bb 24 d3 02 3d 04 7d 5d 3d
       -0.03925495 -0.0023603218 0.03193964 0.054074302
0001c0 22 e4 9c 3d 81 e9 3f 3c 3c 1e 99 bd 28 75 4d bd
       0.076607004 0.0117133865 -0.0747647 -0.050160557
0001d0 04 3b 10 bd 14 da 99 3d 93 6e 30 bd 74 af c2 3c
       -0.03521253 0.07512298 -0.0430742 0.023765303
0001e0 ab 11 06 bd 37 07 aa 3d bc 62 0d 3d 2a 02 7c bd
       -0.032731693 0.08302157 0.03451799 -0.0615255
0001f0 0e ce c9 bc 5c 4f 0c bc f4 61 85 3c a1 f7 c6 bc
       -0.024634387 -0.008563843 0.01628206 -0.024288
000200 39 53 43 3d 4e 93 ac 3d a9 5a 18 ba f3 2a 90 3c
       0.04768679 0.08426534 -0.0005811849 0.017598605
000210 cd 0c b4 3b 59 8d 5f 3d 81 06 a1 3d 76 8e 80 bd
       0.00549469 0.05457816 0.07862569 -0.06277172
000220 24 42 9c 3d af 61 94 bd 3c 28 5b bd dc c6 4c bd
       0.07629803 -0.07245194 -0.053505167 -0.049994335
000230 ac 81 98 3d 7c 4a 9a bd f7 b3 8e 3b 16 d6 61 bd
       0.07446608 -0.07533738 0.0043549496 -0.05513581
000240 ee 04 1c bd 58 71 a2 bc e1 ac 57 bd c8 3a 1a bc
       -0.03809064 -0.019829437 -0.052655105 -0.009413429
000250 b9 b3 87 3c fc 35 5b 3c aa 66 3e bd b3 08 1e bd
       0.01656519 0.01337957 -0.046484627 -0.038582515
000260 89 78 01 3d 24 2d d9 3c a5 97 04 bd 61 b6 2b bd
       0.031609092 0.026510783 -0.032371182 -0.041921977
000270 d2 c7 19 3d a2 d8 08 bc ac 8e 2e 3d a2 1e 71 bc
       0.03754408 -0.008352431 0.04261653 -0.014716776
000280 14 31 1a 3c c6 c7 34 3d 41 93 47 3d 0e 35 4f bd
       0.009411115 0.04413583 0.048724417 -0.050587706
000290 4b b1 53 bd ef a6 6f 3c ec 42 6a 3d 7c d0 f0 3b
       -0.05168275 0.014627202 0.057192728 0.007349072
0002a0 17 bc aa 3c 50 2d 8a bd 31 08 a4 bd cc 77 84 bd
       0.020841641 -0.06746924 -0.08009375 -0.06468162
0002b0 ad 24 bd 3c d8 5e 96 bd dd 43 a4 3d 8c 93 54 bd
       0.023088777 -0.07342309 0.080207564 -0.051898524
0002c0 e5 b3 22 3d 73 c0 9e bd 0a 74 82 3d 78 a5 7d bd
       0.039722342 -0.077515505 0.06369789 -0.06192538
0002d0 60 da 7d bd a9 c7 ae bc 6b a0 3d 3b 4d 53 7e 3d
       -0.061975837 -0.02133544 0.0028934728 0.06209116
0002e0 0c e0 9d 3d 06 bc dc 3c 7d e5 e3 3c ed 3c be 3c
       0.07708749 0.026945125 0.02781939 0.023222411
0002f0 2a f8 49 3d 9b 03 c5 3c 96 8d 27 bd f7 63 89 bd
       0.049308933 0.02404957 -0.04090651 -0.0670852
000300 bd 8b 8e bc 77 45 f6 bc 7e 9e 74 bd fd 61 a6 bc
       -0.017400617 -0.03006242 -0.059721462 -0.020310396
000310 1c 3d 99 bd e4 6f 53 bd 5c 45 ad 3c e6 08 46 bd
       -0.07482359 -0.05162038 0.021151237 -0.04834833
000320 b3 cd a2 3d 8e d4 0d bd 0c ab 73 bd a8 e0 75 bd
       0.0794939 -0.034626536 -0.059489295 -0.060028702
000330 aa 88 78 3d ae de b2 3d cc 7e 65 3d c2 85 9a 3d
       0.060677208 0.08733879 0.056029126 0.075450435
000340 11 b5 8d bd 73 cf f9 bc ff c0 12 bd 82 99 9f bd
       -0.06919301 -0.030494427 -0.035828587 -0.07792951
000350 e3 82 75 bd fb b8 9b bd 48 a7 1f bd 3c 28 3f 3d
       -0.059939276 -0.076036416 -0.03897789 0.04666923
000360 e0 16 e6 3c b1 0b 99 3d ea aa 49 bd 7e f1 33 bc
       0.02808708 0.07472933 -0.049235262 -0.010982869
000370 e3 ce 30 3d 39 99 43 bd cb 99 07 3d 59 5e 84 bc
       0.043166053 -0.047753546 0.033105653 -0.01615827
000380 2e 31 4c 3d 27 58 14 3d 46 23 27 3d f7 ab 53 3d
       0.04985159 0.03621688 0.040805124 0.05167767
000390 4f 35 46 bd 9b 2a 92 3c 54 de 38 bd 35 9e 7d bd
       -0.048390683 0.017842581 -0.045133904 -0.061918456
0003a0 9c 6e 57 bd e8 f7 03 bd 6a 09 a2 3c f4 24 37 bc
       -0.05259572 -0.032218844 0.01977988 -0.011178244
0003b0 b0 1d 84 bd 86 af 2a 3d 9f 87 13 3d f6 91 8f 3d
       -0.06450975 0.0416713 0.03601801 0.07010262
0003c0 28 ab 94 bc 43 62 10 bc bb 88 43 bd bb 9c 26 bd
       -0.01814802 -0.00881249 -0.04773782 -0.040676814
0003d0 89 05 a9 3c f1 56 a4 3d 35 7e a6 3c 6a a7 86 bd
       0.020632522 0.08024395 0.020323852 -0.065749004
0003e0 28 b6 ad bc e4 aa 96 3d 9d 9b b1 3d 67 33 ad 3d
       -0.021205023 0.073568135 0.08672259 0.0845707
0003f0 6e d3 1c 3c 4e 1a 3f 3d 5c b8 4d bd 0c 8f 46 3d
       0.009571893 0.046655945 -0.050224647 0.048476264

conv1.0.bias f4 [8]
000000 d9 74 99 3d 3e 95 8e 3d 9c a4 e9 bb fb 99 81 3d
       0.0749299 0.069620594 -0.0071302187 0.063281976
000010 fb 7a da bc 29 1a 86 bd e3 e6 e9 bc f6 62 ae 3d
       -0.02666997 -0.065479584 -0.028552478 0.08514969

conv2.0.weight f4 [16, 8, 4, 4]
000000 12 6b a1 bd 9e 92 46 3d ca cd b3 3d 62 4f 94 3d
       -0.0788175 0.04847967 0.087794855 0.072417036
000010 9d 8e a7 3d 23 34 6a bd 0e fc a0 3d 3c 62 19 3d
       0.08181498 -0.057178628 0.078605756 0.0374472
000020 74 88 dc bb 86 2d f6 3c 34 b5 23 bb bb bd 19 bd
       -0.0067301337 0.030051004 -0.0024979832 -0.037534457
000030 d4 ab 62 3d 03 27 37 bd 83 e5 84 3d 88 ae b1 3d
       0.05533965 -0.04471494 0.064890884 0.08675867
000040 15 bc 21 3d da b0 23 bc bc 17 36 3d 0a 3b 24 bd
       0.03948601 -0.009990895 0.04445623 -0.040095367
000050 00 c3 47 3d d3 82 9a bc d0 5b 1d 3b 5c 0e a2 3d
       0.04876995 -0.01886121 0.0024011023 0.07912895
000060 63 2a 54 bd db 86 b9 3d f4 e3 5d 3d 25 97 3c 3d
       -0.051798236 0.09058925 0.05417247 0.04604258
000070 82 f9 b9 3d 00 71 1f 3d e1 84 3d 3d ff e0 b2 3c
       0.09080793 0.038926125 0.0462693 0.021835802
000080 7d 07 07 3d da 1b 88 3d 28 c4 54 bc 44 62 a5 bd
       0.032966126 0.06645937 -0.01298622 -0.08075383
000090 c8 7b 30 3b 33 98 a4 bd 7b 89 74 3c f0 bd e5 bc
       0.0026929248 -0.08036842 0.014925356 -0.02804467
0000a0 6e 9e a6 bd ec af 8e 3d 68 1b dc bc c6 bf 46 3d
       -0.08135687 0.06967148 -0.026868537 0.048522733
0000b0 db 12 73 3d 3f 8a 7f b9 db 83 4b bd 88 b6 9e 3d
       0.059344154 -0.00024370196 -0.049686294 0.07749659
0000c0 ba 53 20 3c ce a2 1f 3c d9 a1 9a bd 71 1a 66 bd
       0.009785587 0.0097434055 -0.07550401 -0.05617756
0000d0 82 60 8e 3d c5 2c 2e 3d 15 99 22 3d 90 24 47 bc
       0.06952001 0.042523164 0.03969677 -0.012154713
0000e0 ec 4b c1 3c 3d 36 a8 bd c4 38 a8 3d 57 21 24 bd
       0.023595773 -0.0821347 0.08213952 -0.040070858
0000f0 5f 27 9f bd e1 db e6 bc 53 b9 92 bd f8 5e 06 bc
       -0.07771181 -0.028181018 -0.07164254 -0.008201353
000100 42 67 cc 3c 07 55 21 3d 57 05 da 3c 90 f3 af 3d
       0.02495158 0.03938773 0.026613874 0.08591378
000110 3c 4b ce bc 6a da ba 3c 5a c8 3c 3d 4b 3c 85 3d
       -0.025182359 0.022809226 0.046089508 0.065056406
000120 22 29 34 bd e7 f7 35 bd a6 ae eb 3c c9 95 9d 3d
       -0.04398454 -0.04442587 0.028769802 0.07694585
000130 73 87 60 bd df 2b 7a 3d c3 29 91 bd 71 d6 83 3d
       -0.054816674 0.061076995 -0.070880435 0.06437386
000140 ae 4b d8 bc 71 97 a9 3b 7c 28 6c bd 11 77 a3 bd
       -0.026403274 0.005175524 -0.057655796 -0.079816945
000150 be 84 af bd 19 fe 90 bd cd 0f 44 bd be 59 79 bd
       -0.085702404 -0.07079715 -0.04786663 -0.0608766
000160 e1 53 85 3b 2c 34 64 3c 63 41 a9 bb 19 dd 68 3c
       0.004068837 0.013928454 -0.0051652654 0.01421287
000170 47 0f af bc 2f ff 8e bc a7 db bd 3b ae 09 8e 3d
       -0.02136959 -0.017455665 0.005794007 0.0693544
000180 c9 e7 b4 3d ac d3 44 3d 89 0e 49 3d 05 3e 86 bc
       0.08833272 0.04805343 0.049086127 -0.016386995
000190 98 30 29 3d 0b d6 0e 3d 00 1b 7a bc d2 67 51 bd
       0.04130611 0.034872096 -0.015265226 -0.0511244
0001a0 f7 e4 52 3c af 10 14 bd 8d cf f6 3c 01 25 66 3c
       0.012871972 -0.036148723 0.030128265 0.014046908
0001b0 4c 42 2f bd 7b 6c 97 bd d0 a4 4c bd b6 ab b8 3d
       -0.042787835 -0.07393738 -0.049961865 0.09017126
0001c0 1a 52 83 bd 65 a0 50 3d 7e 4c 41 3c ff c0 3c bd
       -0.06412144 0.050934214 0.011798022 -0.046082493
0001d0 99 40 84 bd b8 51 b4 bc 02 32 c5 bb 0c ee f9 3c
       -0.064576335 -0.022011623 -0.0060179243 0.030509017
0001e0 4a 4f 49 bd ac d5 43 3b b8 84 8d 3d 4a df 20 ba
       -0.04914788 0.0029881997 0.0691008 -0.0006136788
0001f0 32 e4 50 3d 69 21 d4 3a 47 96 6b bd cb d0 12 bd
       0.050998874 0.0016184273 -0.057516363 -0.03584365
000200 59 0e 82 bd ee a3 ab 3d 21 98 8f bd 5c a9 12 ba
       -0.06350393 0.083808765 -0.07011438 -0.00055946945
000210 e8 89 81 3d 4b 1d 90 3d 34 41 96 bd 43 9d 07 3d
       0.06325132 0.07036837 -0.07336655 0.03310896
000220 c0 44 c2 bc b9 3d 83 bc 11 1c b9 bb 5c d3 c1 bc
       -0.023714423 -0.016020643 -0.0056490977 -0.023660354
000230 d5 f7 16 3d 89 86 25 bd 13 10 a5 3c 95 0d b0 bd
       0.036857445 -0.040411506 0.020149266 -0.085963406
000240 fe b8 c0 3c df 7e 9a 3c 6e 40 99 3c a3 28 92 bb
       0.023525711 0.018859325 0.01870748 -0.0044604107
000250 43 47 b4 3a a8 d0 a1 bd 92 ec 49 bd 8e 1f de 3c
       0.0013754148 -0.07901126 -0.049297877 0.027114656
000260 48 7b 58 bd 4f c3 98 3c c0 f6 99 3d 8e d0 7c bd
       -0.052851945 0.018647818 0.07517767 -0.06172233
000270 67 54 2b 3d 12 b8 45 bd 89 a9 2c bc 45 fc 67 bc
       0.04182854 -0.048271246 -0.010538467 -0.014159267
000280 7e 3f 99 3d 7d 38 2b bc d3 b2 c2 bb 28 6a d3 3c
       0.07482813 -0.01045048 -0.0059417277 0.025807455
000290 88 d1 d3 bc b5 57 83 bd 9c 30 15 bc 60 50 df bc
       -0.025856748 -0.06413213 -0.009105828 -0.027260005
0002a0 f3 08 1f 3c 3a 9e 8e bd d9 25 31 3d 40 88 15 3d
       0.0097067235 -0.06963773 0.043248985 0.03650689
0002b0 20 94 78 bc 96 73 bc 3c fa 9c b0 bd bc 79 89 3d
       -0.0151720345 0.023004334 -0.08623691 0.06712672
0002c0 9c d2 43 bd 0b ea ac bd 73 2b a0 bd bc 03 89 bd
       -0.047808275 -0.08443078 -0.07820787 -0.066901654
0002d0 ab 91 a5 bd bc 12 53 3c 09 f2 31 3c a3 00 0e bc
       -0.080844246 0.012882885 0.010860928 -0.008667144
0002e0 06 94 97 3d e9 c2 fd 3c c3 a3 0a 3d 7a 8b 00 bd
       0.0740128 0.03097673 0.03384758 -0.031383015
0002f0 2a 3c 00 bd 81 1b a9 3d 17 72 2c bd 98 40 72 bd
       -0.031307377 0.08257199 -0.042100992 -0.059143633
000300 06 53 c1 bb 6c dc 33 bd 5e 9e 94 bd f5 99 a6 bd
       -0.0058997897 -0.043911383 -0.07256769 -0.08134834
000310 03 f6 77 bd 17 cb 09 bd 69 ca 37 bd 65 74 53 bd
       -0.06053735 -0.033640947 -0.044870768 -0.051624674
000320 32 da be 3b 2d 26 90 3c f8 64 a6 3d e9 c9 f0 3b
       0.0058243508 0.017596329 0.08124727 0.0073482883
000330 b6 c1 3b bd ed eb 9c 3d c8 5e ad 3d cb f6 9e 3d
       -0.045839034 0.07662187 0.08465344 0.07761916
000340 1f 2a 5f 3d 86 2d ab 3d e7 4e 19 bd 74 ad b3 3d
       0.05448353 0.08358292 -0.037428763 0.08773318
000350 49 8f f3 bc b7 19 a6 3d ac c1 5f bd fd 9a 6a bd
       -0.02973141 0.081103735 -0.05462806 -0.057276715
000360 1b b7 93 3d 92 f4 aa bb 56 74 0e 3d 95 c9 24 bd
       0.07212659 -0.0052171433 0.034778915 -0.040231306
000370 3b cc 9b 3c 8e 82 12 3d bd a1 7f bd 06 2f 59 3d
       0.019018283 0.035769038 -0.062410105 0.05302336
000380 7f 40 9a bd e1 64 0e 3c 90 9d 76 3d 6f f6 d8 3b
       -0.07531833 0.008691044 0.060208857 0.006621174
000390 63 aa c2 bc 00 b4 45 3d 47 f0 6e 3d 90 1b b1 bb
       -0.023762887 0.048267365 0.058334615 -0.005404897
0003a0 87 ac 64 3d 01 57 8b bd a3 e5 0d bd a9 e6 97 3c
       0.055828597 -0.06803704 -0.034642827 0.018542605
0003b0 1c 6a a0 bd d7 c8 54 3d 4e d3 30 3d 2c 1d 3a bd
       -0.07832739 0.05194935 0.043170266 -0.045437977
0003c0 ca cd 99 bb 3b 03 6d bc f8 87 b4 bd 49 09 89 3c
       -0.0046937214 -0.014466102 -0.088149965 0.01672806
0003d0 78 7d 9b 3d ec bf fe 3c 25 9d 22 bd 79 af b0 3d
       0.07592291 0.031097375 -0.039700646 0.08627219
0003e0 ae 48 c4 3c 7a 0c af bd d2 f8 e9 3c 06 8d ad bd
       0.023960438 -0.085473016 0.02856103 -0.08474164
0003f0 68 86 85 bd 02 78 79 3d b6 b6 72 bc ad 5c 16 bd
       -0.065197766 0.060905464 -0.0148140695 -0.036709476

conv2.0.bias f4 [16]
000000 2d 2a 6f 3d 5c 4c 42 3b 02 33 69 3d ce de 35 bc
       0.05838983 0.0029647565 0.05693341 -0.011100484
000010 9a 7e e8 bc fa b0 ad bd d0 bb 8b 3d 2e 9a 08 3d
       -0.02838068 -0.08481021 0.06822932 0.033350162
000020 eb a4 36 bd 37 8d 96 3d 51 a8 8d 3d a7 9e 80 3d
       -0.04459087 0.07351153 0.069168694 0.062802605
000030 8f 66 46 3c 1b 8d 6c bd 7d b8 97 bd b8 54 9f 3d
       0.012109413 -0.057751756 -0.07408235 0.07779831

fc1.0.weight f4 [100, 400]
000000 cd 4a 2c 3d 10 54 ca 3b cd a7 02 bd 95 c6 1f 3c
       0.042063523 0.006174572 -0.03189831 0.0097519355
000010 96 92 2d bd 8d 65 96 bb 73 c4 f3 bb 68 25 ef bc
       -0.042376123 -0.0045897425 -0.00743919 -0.029192641
000020 13 34 43 3d d6 de c8 bc 20 bb 12 3c a3 4b c2 bc
       0.047657084 -0.024520319 0.008955747 -0.023717707
000030 3f 85 e2 3c c5 6d 18 3d 99 90 8a 3b 32 5e 0e 3d
       0.027651427 0.03721406 0.004228663 0.0347578
000040 3e 0b 10 3d 21 45 78 3c e8 51 33 bd e1 b0 22 3d
       0.03516697 0.0151532 -0.043779284 0.039719466
000050 b0 89 ba bc c4 1f 84 3c 23 97 eb bc bb 21 1b 3c
       -0.022770733 0.016128428 -0.028758591 0.009468491
000060 ec c0 ba bc e5 82 a1 bc d9 32 2c 3d 16 2a d5 bc
       -0.02279707 -0.019715736 0.04204068 -0.026021045
000070 c0 5e 84 bc bb 5b 2c bc b6 62 0f bd d9 86 00 3c
       -0.016158462 -0.010519917 -0.035006247 0.00784465
000080 9e 97 48 bd 3f 7b e0 3c 5c c0 9f 3c 9e 35 bf 3c
       -0.04897272 0.027402518 0.019500904 0.023340996
000090 95 7b 27 3d f6 a4 85 3c 3b 93 13 bd 27 42 e0 ba
       0.04088934 0.016314011 -0.03602908 -0.0017109559
0000a0 d1 25 fa 3c 57 bb 28 3b 0c a0 d2 bc 55 d2 28 3d
       0.03053561 0.002574643 -0.025711082 0.041216213
0000b0 f7 cf 12 bd dd 76 d2 3b ca 39 c2 3c a8 77 35 3d
       -0.035842862 0.006422861 0.023709197 0.044303566
0000c0 1a 06 ba bc 27 b2 a1 3c 01 f6 e2 bc b0 c2 46 bd
       -0.022707988 0.01973827 -0.027705194 -0.048525512
0000d0 ce 4e 5d 3b 7c 89 7b 3c 1c 4f be bc 04 ad 32 bb
       0.0033768895 0.015352603 -0.023231082 -0.002726377
0000e0 fd ff 26 3d e9 ba c2 3a fc 5f b9 bc 1e 25 c1 ba
       0.040771473 0.0014856729 -0.022628777 -0.0014735793
0000f0 49 7f 33 bd ee 30 a5 bc 56 b7 bd 3c e9 1b 09 bc
       -0.04382256 -0.020164933 0.02315871 -0.008368471
000100 1c 88 37 bd cb 75 91 bc dd 52 cb bb 83 41 9e bb
       -0.04480754 -0.017756363 -0.0062049464 -0.004829587
000110 20 2c a2 bc 20 99 a0 3b e6 88 1a bd b5 e0 45 bd
       -0.019796431 0.0049010664 -0.037728213 -0.04831
000120 73 63 25 3c 55 ba c3 3c 33 88 25 3d 92 a0 1b 3d
       0.010094511 0.023892561 0.040413093 0.03799493
000130 4a d1 06 bb b4 21 a7 3c a5 30 45 bc 1b e6 55 bc
       -0.0020571523 0.020401813 -0.012035524 -0.01305535
000140 36 6f 71 bc 93 bb fe bc e8 39 1b bd 56 08 88 bc
       -0.014735987 -0.031095302 -0.03789702 -0.016605537
000150 3a 87 e2 bc 04 66 48 bd 93 53 aa bc d7 b9 44 3d
       -0.027652372 -0.048925415 -0.020791804 0.048028793
000160 72 2d 6e 3a 18 65 41 bd 2f fe d1 3c 17 d5 ce 3c
       0.00090857514 -0.04721555 0.0256339 0.025248094
000170 21 49 1a 3b 95 84 dc 3c 56 62 01 bd 38 7f f8 3c
       0.0023542123 0.026918689 -0.03158792 0.0303341
000180 ca e1 83 bc 8d 42 ba bc 5d d8 9f bc dc 40 e6 3b
       -0.016098876 -0.022736812 -0.01951235 0.007026775
000190 6f 9f 86 bc 21 2e 12 bd de 25 23 bd 1d 01 bb bc
       -0.016433446 -0.035688523 -0.039831035 -0.02282768
0001a0 01 19 42 3d 14 47 4c bd 29 c0 da 3c b9 27 f6 3b
       0.047387127 -0.049872473 0.026702957 0.0075120595
0001b0 b2 17 3e bd a1 cd fc 3c c0 2b 18 bd eb 85 07 3d
       -0.046409316 0.03085977 -0.0371511 0.0330867
0001c0 f8 ee 34 3d cd 6f 20 3d a4 99 49 bd 88 60 79 3c
       0.04417321 0.03916912 -0.04921879 0.015220769
0001d0 9f df a3 3c 7e e4 e7 3c 68 f3 3a bd 19 d5 36 bd
       0.020004092 0.028307196 -0.045642287 -0.04463682
0001e0 d1 93 3e bd 67 65 ab bc 62 32 82 bc 42 76 47 bd
       -0.046527687 -0.020922376 -0.015893165 -0.048696764
0001f0 bd a9 da bb 6f 66 17 3c c9 7c 8d 3c 9f 55 ba bc
       -0.0066730664 0.009240731 0.017271416 -0.022745905
000200 4a 10 e5 3b b4 fa 7c 3c da aa 91 3c e0 a1 e0 3c
       0.006990467 0.015440632 0.017781664 0.027420938
000210 09 1e 16 bd 49 c1 d9 bc 16 92 15 bd c6 f4 46 bd
       -0.036649738 -0.026581423 -0.03651627 -0.048573278
000220 3e 9e 18 3d 96 72 13 3d a6 b4 21 bd 68 45 ee bc
       0.037260287 0.03599795 -0.03947892 -0.02908583
000230 aa c5 9e bc ad 2b 43 3d 36 6d 0d 3d b7 17 70 3c
       -0.019381363 0.047649074 0.03452798 0.014654092
000240 9c c1 82 bc 7e b7 b3 3c 6f 70 ed 3c b5 83 a4 3c
       -0.01596146 0.021938082 0.028984277 0.020082334
000250 3e 95 02 3d 05 ed 19 3d b2 5a bf 3c f1 c5 49 3d
       0.03188061 0.037579555 0.023358677 0.049261037
000260 f2 1c 57 3c 4d c1 49 3c e6 15 ff 3c e1 fb 83 ba
       0.01312946 0.012314153 0.031138372 -0.0010069573
000270 5a 22 fc bc b9 ac a3 3c 28 28 0b bc 63 88 0b 3b
       -0.030778099 0.019979822 -0.008493461 0.002129101
000280 f6 17 08 3c 2b a2 f8 ba 90 0e f7 bc 6f ba 41 bd
       0.008306494 -0.0018969228 -0.030158311 -0.047296938
000290 af e3 25 bc 7a 9e 41 bd 08 be 7f bc 30 6d 32 3d
       -0.010125085 -0.047270276 -0.015609272 0.04356116
0002a0 58 d8 5d 39 d8 37 06 bd c9 7a ee bc 55 36 09 bd
       0.00021156797 -0.0327681 -0.029111283 -0.03349908
0002b0 9a f5 86 bc 55 dd bc b9 da c0 9d 3c a2 96 ec bc
       -0.016474534 -0.0003602306 0.019256998 -0.028880421
0002c0 69 e5 3c 3d a6 fc 3a 3d d6 74 cc 3c c5 65 18 bd
       0.04611722 0.0456511 0.024958055 -0.03720643
0002d0 57 87 d8 3c af 6e 0f bd 8f 38 d8 3c 33 e4 ce bb
       0.026431723 -0.035017665 0.026394157 -0.0063138246
0002e0 10 89 1d 3b 00 ff 2f bd 33 cd 4c bd b6 c3 69 3b
       0.0024037994 -0.042967796 -0.05000038 0.0035669631
0002f0 7c 97 05 3d d0 06 cb b9 bf 79 dc bb 53 07 17 3b
       0.03261517 -0.00038724253 -0.0067283805 0.0023045137
000300 b3 dc 8b 3c 81 a2 2f 3d 0a 31 be 3c f9 28 bf 3c
       0.017073011 0.042879585 0.023216743 0.023334967
000310 91 f1 93 3c 14 0b 0e bd 25 3f 2a bd 8f a9 26 bd
       0.018059524 -0.034678534 -0.041564126 -0.040689047
000320 b8 00 5c bc 38 60 bf 3c 18 78 14 bd 62 ed 55 3c
       -0.013427906 0.02336131 -0.036247343 0.013057085
000330 8b 51 1c 3d ef b8 b4 3c ff a8 d8 3b 78 92 fc bc
       0.038163703 0.02206084 0.006611943 -0.03083156
000340 38 93 4e 3b dc cb 65 bc 9d 69 47 3d e0 c5 94 3c
       0.0031520855 -0.014025655 0.048684705 0.01816076
000350 dd 50 9b bb 47 e7 fc 3c 17 23 eb 3c 85 d2 cc 3c
       -0.0047398643 0.030872 0.028703256 0.025002727
000360 04 61 7f bc 8e 17 3c 3d 85 7b 84 3c da a8 7b bb
       -0.015587095 0.0459209 0.01617218 -0.0038400204
000370 76 5e de 3c 66 a8 97 bc c4 24 f0 bc 63 85 ab bc
       0.027144652 -0.018512916 -0.029314406 -0.020937627
000380 fa c3 53 3b fa fe 15 bd df d4 41 3c fa 89 f6 bc
       0.0032312856 -0.036620118 0.011830538 -0.03009509
000390 d9 f8 1b bd 29 fd 88 bc 3b 77 41 3d a1 c2 8c bc
       -0.038079116 -0.016722279 0.047232848 -0.01718265
0003a0 f2 64 3e bd 77 d5 a2 bc 93 36 0a bd 14 f0 90 bc
       -0.046482988 -0.019877179 -0.033743452 -0.017692603
0003b0 bf 60 05 bc ac e4 9c 3b 2c fe e8 bc ae 1d fa 3b
       -0.008140742 0.004788002 -0.028441511 0.0076329326
0003c0 28 4a 2d bd 1a b6 33 3d a1 8d 4a bd db 43 3e 3d
       -0.04230705 0.043874837 -0.049451474 0.04645143
0003d0 d4 32 ee 3c 09 20 ce bb 47 14 21 bc f9 e9 19 bc
       0.029076971 -0.00629044 -0.009831495 -0.009394162
0003e0 72 90 69 bc 9f bc 8d 3c 13 4c a8 3c 3d f7 55 3c
       -0.01425563 0.017301856 0.020544088 0.0130594345
0003f0 24 f2 31 3d 0a 39 ef bc 86 1e d2 bc cf 0a c3 bc
       0.043443814 -0.029202003 -0.02564932 -0.023808865

fc1.0.bias f4 [100]
000000 8c 41 be 3b 38 46 c3 3c 23 79 78 3c 61 72 d3 3c
       0.0058061536 0.023837194 0.0151656 0.025811376
000010 f0 4e 9e bc 18 91 1c 3d d9 29 e6 bb 30 2f 6f bc
       -0.01932475 0.03822431 -0.0070240316 -0.014598653
000020 72 c3 1d bd cd f6 39 3c 8a 92 e8 3a 77 13 e1 bc
       -0.03851647 0.011350346 0.0017743867 -0.027475102
000030 c6 be 56 3d 19 b5 df 3c 47 eb 34 3d bb 53 94 3c
       0.05242803 0.027308034 0.04416969 0.018106332
000040 b0 24 a9 bc 69 b2 69 bc c3 0c 95 3b 6b fe 00 bd
       -0.020647377 -0.014263728 0.0045486405 -0.031492632
000050 a3 1b 1d 3d 23 56 8a 3c fd 37 1f 3b 97 58 5f bc
       0.038356435 0.016886776 0.0024294846 -0.013631961
000060 ab d1 06 3d 07 f7 2e bb e3 fb bc 3c dc 53 86 ba
       0.0329148 -0.0026697533 0.023069328 -0.0010248381
000070 5f f6 0e bd 1f a6 a2 3c a4 89 18 3c 7a f4 e4 3c
       -0.034902927 0.019854603 0.00931016 0.027948607
000080 f7 d8 4f 3d 6a d8 3e ba 55 30 88 bc 44 f4 0e bd
       0.050744023 -0.0007280173 -0.016624609 -0.03490092
000090 b6 77 59 3d 14 0c 5c 3d f7 f7 72 3c a2 95 3a bd
       0.05309268 0.053722456 0.014829627 -0.045552857
0000a0 3d 9d ac bc 73 57 b4 bc d4 70 3e 3d 42 f5 2d bd
       -0.02107107 -0.022014355 0.04649432 -0.042470224
0000b0 8a e3 29 bd 23 33 1c 3d e8 63 4b 3c 32 11 ee 3c
       -0.041476764 0.038134705 0.012413956 0.029060934
0000c0 10 c8 81 3c c8 da a3 3c 60 4d c7 3c a2 24 10 bd
       0.015842468 0.020001784 0.024328887 -0.035191186
0000d0 e9 06 5e bc ac 20 a1 bc 3b 6e f2 3c a5 61 de 3c
       -0.013551452 -0.0196689 0.029593578 0.02714617
0000e0 eb fc 12 bd d6 af 53 3c 9f d0 05 bd e4 1f ed 3a
       -0.035885733 0.0129203405 -0.03266966 0.0018091169
0000f0 ab 47 31 bc 5b 01 d4 bc 43 60 fa bc a8 36 4d 3c
       -0.01082031 -0.025879553 -0.03056348 0.012525238
000100 03 a6 f7 bc 6e a7 de bc 75 f4 18 3c 0f d9 9d 3c
       -0.030230528 -0.027179446 0.009335627 0.01926854
000110 39 a9 31 bc 3e f5 0b 3d 8e 31 18 3d b8 a2 6a 3c
       -0.0108435685 0.034169428 0.037156634 0.014321022
000120 6d 97 84 3c ea b0 ab bc 98 49 3f bd 45 91 fc b8
       0.016185487 -0.020958383 -0.046701044 -0.00012043355
000130 35 04 fb 3b 2b 38 44 3c 1f 04 09 3c 37 af 5d 3c
       0.0076604136 0.011976282 0.008362799 0.013530544
000140 70 73 e3 bc 93 c1 21 bd df 5f 83 bc 18 94 c5 3c
       -0.027765006 -0.039491247 -0.016036926 0.024118468
000150 6a 09 d5 bc 95 c8 9f 3c 27 a1 ea bc b2 18 b4 3c
       -0.026005466 0.019504825 -0.028641297 0.021984432
000160 3a 7e d4 3b 06 b7 27 3d ba 0e 46 3d 8a 9d 19 bd
       0.006484774 0.04094603 0.048353888 -0.037503757
000170 c6 ea 0a bd 1a 8f 05 3c b9 00 0e bd d5 86 54 bc
       -0.033915304 0.008151794 -0.034668658 -0.0129716
000180 ce c1 30 3d 77 6e 0b 3d 9e 26 fb 3b f6 25 af 3b
       0.043153577 0.034040894 0.0076645156 0.0053451015

fc2.0.weight f4 [80, 100]
000000 f1 7d 90 3c 43 3d d1 3d 28 4d ba bd f3 4b 9e 3d
       0.017638179 0.10216763 -0.09096748 0.0772933
000010 b4 8d af 3d fd 53 9f bd 8b 5a 46 3d 12 e4 b3 bd
       0.085719496 -0.07779691 0.048426192 -0.08783735
000020 61 2d 24 bd 8b f7 ad bd 17 30 8a bd ac 9d 7b 3d
       -0.04008234 -0.08494481 -0.06747454 0.061429664
000030 39 a3 4a bd b1 93 2b bd a6 ab 6a 3c e7 7f 8d 3d
       -0.049472068 -0.041888896 0.014323151 0.06909161
000040 8d 77 5f bd e0 ea 45 bd cb b9 9e 3d 10 9c 27 3b
       -0.054557372 -0.048319697 0.07750281 0.0025575198
000050 93 c7 b5 3d 02 ba 94 3d 2e d6 94 bd 29 5f b9 3d
       0.088759564 0.07262041 -0.07267414 0.090513535
000060 2b af 96 3c 91 e0 6b bd c0 c4 cf 3d 15 b1 c2 3d
       0.018394073 -0.05758721 0.10144949 0.09506432
000070 44 f0 9e 3c 10 f9 b6 bc 38 61 4f 3c c3 db 70 bd
       0.019401677 -0.02233556 0.012657456 -0.05880333
000080 c6 ea 83 bd 44 83 43 3c f2 1e 3d bd 09 f3 a1 bd
       -0.06441264 0.011933152 -0.04617209 -0.079076834
000090 21 f0 a8 3d 27 4b 8e bc b6 3b 90 3d 7e a7 9c bd
       0.08248926 -0.01736982 0.07042639 -0.07649134
0000a0 9c db 7b bd d3 37 5d 3c 62 73 aa 3d 30 f8 cf 3c
       -0.061488733 0.013502079 0.08322789 0.0253869
0000b0 4e 25 9c bd b6 8e 3a 3d 1c 66 63 3d da cf 2c 3d
       -0.07624303 0.045546256 0.0555173 0.04219041
0000c0 c4 83 66 bd 00 16 52 3c 21 e9 85 3d a4 07 a1 3c
       -0.056278005 0.012822628 0.065386064 0.019656964
0000d0 f0 82 82 bd d5 79 f9 3b 19 bb 1c 3d 5a b2 c5 bd
       -0.063726306 0.0076134005 0.038264368 -0.096531585
0000e0 8d 56 16 3c c3 3a ca 3d 2a 9e 90 3d f0 7e 41 3d
       0.009175909 0.09874489 0.070614174 0.047240198
0000f0 66 14 0d 3c e5 70 92 3d 96 eb ac bd 08 f2 84 3d
       0.00861082 0.07150439 -0.08443372 0.06491476
000100 30 54 90 3d de 08 39 3c 38 50 55 3a 17 4f a4 3d
       0.070473075 0.011293618 0.00081372587 0.08022898
000110 95 c0 95 bd 5f ac ac 3d b3 4e 89 bd 2d 03 3c bc
       -0.07312123 0.08431315 -0.06704464 -0.011475367
000120 b1 25 2c bd 7f a7 c2 bd 40 0f 18 ba 6f 74 a8 bd
       -0.042028133 -0.095046036 -0.0005800612 -0.08225333
000130 9f b3 3e bd 01 bd 09 3d 9b fd 99 bd 0a ea ba 3d
       -0.04655802 0.033627514 -0.075190745 0.09126671
000140 c1 f4 c2 3d 89 60 c3 3d bd ba c6 bd 74 f7 2a 39
       0.09519339 0.09539897 -0.09703586 0.00016304647
000150 2f 33 67 3d 00 6c b1 bd 07 c0 a8 bc d5 f2 85 3d
       0.056445297 -0.086631775 -0.020599378 0.06540457
000160 8a 68 49 3d f7 bc dd bc f5 03 a3 bd b3 bf 13 bc
       0.04917196 -0.027067645 -0.07959739 -0.009017873
000170 32 f0 00 bd 4e e8 cb 3d e7 df 9c 3d 22 64 5f 3c
       -0.031479068 0.09956418 0.076598935 0.013634713
000180 51 d5 ae 3d 13 3a 0c bd 30 00 9f bd 23 66 a7 3a
       0.085367806 -0.03423507 -0.07763708 0.0012771528
000190 9b 39 ba 3d 1e d4 63 3c 99 06 ac 3d db fe ae 3d
       0.090930186 0.013905553 0.08399696 0.085447036
0001a0 77 72 6d 3c 5b a1 15 3d 25 a9 18 3c 97 2b 55 3c
       0.014492623 0.036530834 0.009317671 0.013010881
0001b0 be 06 b2 bc 00 15 13 3b 09 91 50 bd 83 35 80 bd
       -0.02173173 0.0022442937 -0.050919566 -0.062602066
0001c0 b0 cd 49 bd f0 6f 42 3d a8 cb c2 bd 20 eb b5 3d
       -0.049268425 0.047470033 -0.095115006 0.08882737
0001d0 ba be 9b 3c a2 ff 83 bd 11 04 97 bd ed 17 03 3d
       0.019011844 -0.064452425 -0.073738225 0.03200524
0001e0 29 17 c4 3d 47 53 6a bc b2 c8 6d bc d4 b4 35 bd
       0.0957473 -0.014302081 -0.0145131815 -0.044361904
0001f0 af 5f be 3d c3 f2 9d 3d 06 82 93 3d 9e 46 93 3d
       0.09295594 0.07712319 0.072025344 0.071912035
000200 81 28 24 bd 66 75 19 3d 34 6c a0 3d 57 52 8f 3c
       -0.04007769 0.037465475 0.07833138 0.017495317
000210 ab 98 98 3d a7 c9 b0 3b ff 95 b1 bd 37 25 0f 3d
       0.07450994 0.0053951326 -0.086711876 0.0349476
000220 88 45 5f 3d 11 2b c8 3d 77 c0 43 bc 3a 2b 4a bd
       0.05450967 0.09773839 -0.011947743 -0.04935763
000230 4f 98 bc bd f5 97 20 3d 2a 4d 2b 3d 00 c8 05 3d
       -0.09208738 0.039207418 0.041821636 0.032661438
000240 39 81 a3 3d 1d b9 49 bd 98 ef 42 3d cd fe 82 bd
       0.07983632 -0.049248803 0.047591776 -0.06396256
000250 8e 65 a2 bc 86 13 68 bc 9e a8 ac bd b2 e2 b7 bd
       -0.019823816 -0.014164811 -0.08430599 -0.089787856
000260 9b d9 fb 3c 64 13 97 3d 1c f2 f0 3c 4b 3a 0f bd
       0.03074341 0.07376745 0.029412322 -0.034967702
000270 00 e0 0f bd e3 79 43 3d 63 d5 9f bd e9 ce d1 bb
       -0.035125732 0.047723662 -0.07804372 -0.0064028394
000280 58 8e 0e 3c c2 40 35 bb 0d 24 14 bd 46 f8 c9 bd
       0.00870093 -0.0027657007 -0.036167193 -0.098618075
000290 3d b3 01 bc 1f e1 93 bc b2 47 b3 bc 87 f5 b4 bd
       -0.007916269 -0.018051682 -0.021884773 -0.08835893
0002a0 4f 5f 1e bd 3f d4 21 bc 73 a4 80 3d c4 58 31 3c
       -0.038665112 -0.009877264 0.06281366 0.010824386
0002b0 91 90 bc bd 68 bb b0 3d 99 94 d8 3c 51 c6 a6 3d
       -0.09207261 0.08629495 0.026438044 0.081432946
0002c0 e1 b9 b5 3d 2d c4 3e bd e7 ba 37 3d dd 9a ec 3c
       0.08873344 -0.046573807 0.04485598 0.028882438
0002d0 ff fc ab bd c1 86 eb 3c 82 03 e6 bc 02 40 94 bd
       -0.083978646 0.02875078 -0.028077845 -0.07238771
0002e0 97 1d bb bd 0f fc b0 3d 00 72 f0 3c 06 de a7 bd
       -0.09136503 0.08641826 0.029351234 -0.081966445
0002f0 c6 57 f0 3b 87 62 96 3d ad 39 bd bd ca 60 9c 3d
       0.007334682 0.07343011 -0.092395164 0.076356485
000300 a6 51 64 3d 47 84 90 ba e8 12 89 bd 76 24 9f bd
       0.05574193 -0.001102575 -0.06693059 -0.07770626
000310 6f 8d 89 3d bb 07 72 bb e1 e3 a7 3c 80 92 8a bd
       0.067164294 -0.0036930877 0.020494403 -0.06766224
000320 05 95 b3 3d f0 6a 13 3d 97 66 aa bd 9e 1a de bc
       0.087686576 0.035990655 -0.08320349 -0.027112301
000330 68 ab b5 3c 7b 1a 94 3d 81 e2 35 3d c2 18 35 bc
       0.02217646 0.07231613 0.044405464 -0.011053266
000340 9a 62 bb bc b5 df c0 bd 68 31 f7 bb 51 02 8d bd
       -0.022874165 -0.09417669 -0.0075437315 -0.068852074
000350 19 3a 56 3c 8e 7c c5 3c 1a cd 96 bc 20 70 e1 3b
       0.013075375 0.024107244 -0.018408347 0.0068798214
000360 2e 50 68 bd 82 7f a7 3d 8e 4b 0c 3d 58 8c c1 bd
       -0.05671709 0.08178617 0.034251742 -0.094505966
000370 25 4c 2b b9 65 c7 d2 3c be 1d 06 bd 87 d6 96 bd
       -0.00016336197 0.025729844 -0.032743208 -0.073651366
000380 d8 a4 97 3d c2 2b 6e bb eb df 9a 3b 03 1b c2 bd
       0.07404488 -0.0036342 0.0047264 -0.09477808
000390 0e 12 bf 3b ed 95 3f bb 9b 26 6a bd 10 73 57 bb
       0.0058310097 -0.002923365 -0.057165723 -0.003287498
0003a0 3a bb 6d 3c e4 9a 17 bd 5c 39 58 3d b5 a6 95 bd
       0.01450997 -0.03701295 0.052789077 -0.073071875
0003b0 61 17 38 3d 7b 39 84 3c 74 cf 7d bd 22 f2 42 3d
       0.04494417 0.01614069 -0.06196542 0.047594197
0003c0 25 f7 a1 3d 4b 62 1a bd 54 e9 ed 3c dd b8 15 3d
       0.07908467 -0.037691396 0.029041924 0.036553252
0003d0 29 89 4f bd fc 61 18 bd 89 f7 81 3d 48 a8 72 3d
       -0.050667915 -0.03720282 0.06346042 0.059242517
0003e0 da 2a 9e bd 88 61 b2 bd 53 a0 54 3d c4 df 43 bd
       -0.07723017 -0.08710009 0.05191071 -0.04782082
0003f0 e4 14 b6 bd 06 0e 6e bd 45 5f bc bd fb 31 19 bd
       -0.08890703 -0.058118843 -0.09197859 -0.03740118

fc2.0.bias f4 [80]
000000 c9 07 9f 3d 7d 43 91 bd 0e c8 9c 3d 88 8b 49 bd
       0.07765157 -0.070929505 0.07655345 -0.049205333
000010 60 12 2b bd ea cd b7 3c e4 eb 78 3b de 02 09 3d
       -0.04176557 0.022437055 0.0037982399 0.03345
000020 0b e1 ab bd 0a b3 2c ba df f5 5a bc db b9 c0 3d
       -0.08392533 -0.0006587958 -0.013364284 0.09410449
000030 56 81 cc b8 2a 8b 93 3d da 87 69 3c f6 00 ca bc
       -9.751569e-05 0.07204278 0.014253581 -0.024658661
000040 c7 a1 db bb fe 4e 22 3d 90 95 98 bd 26 dc d6 3d
       -0.006702635 0.039626114 -0.07450402 0.10491209
000050 6e d3 45 3d 29 81 cc bc 00 f5 e5 3c f3 c8 cb 3c
       0.04829734 -0.024963932 0.028070927 0.024876093
000060 68 d8 75 bc ab 30 16 3c 80 b1 f5 bc 5b 20 87 3c
       -0.015005209 0.009166877 -0.029991865 0.01649492
000070 b7 95 67 bd eb d6 c3 bd 57 bf cc bd 65 01 34 bd
       -0.056539264 -0.09562477 -0.09997433 -0.043946642
000080 5d 06 13 3d 6a f9 18 bc 71 a4 34 bd 79 75 8d bd
       0.03589474 -0.009336809 -0.044102136 -0.06907172
000090 bd 8a 98 3c d9 30 cb 3d d7 50 3a bd fc 13 91 bc
       0.018620843 0.09921426 -0.04548725 -0.017709725
0000a0 c3 60 4a bd ea 42 7c 3c 2e 0f 73 3d cd 19 cb bd
       -0.049408685 0.015396813 0.05934065 -0.099170305
0000b0 4f bb 9c 3d 17 69 1b 3d cd 66 ba 3d f6 cb 6e 3d
       0.07652914 0.03794202 0.09101639 0.05829998
0000c0 96 b0 55 3d 10 95 b5 bd 2a d9 97 bd e8 17 88 3d
       0.05217036 -0.08866322 -0.07414468 0.06645185
0000d0 8c 03 13 3d 48 82 5d bd ce ae 97 3c 52 53 9d 3d
       0.035892054 -0.054079324 0.01851597 0.07681908
0000e0 ee 8c 6e 3d 3f 65 1f bd c2 af c0 3d f5 95 3c 3d
       0.05823987 -0.038914915 0.09408523 0.046041448
0000f0 9a 9c 10 3c 0f 34 ac bd 54 84 7b bd a2 eb 8b 3c
       0.008826399 -0.08408367 -0.061405495 0.017080132
000100 1f 52 bd bd 57 b1 94 3d bc 8b 58 bd 8d 3a ff bc
       -0.09244179 0.072603874 -0.052867636 -0.031155849
000110 7d 76 9f bd 13 59 e3 bc 76 3d b2 3d ed 9f 1c 3d
       -0.07786272 -0.027752435 0.08703129 0.038238455
000120 cd 95 9e 3d ff d4 01 3d 12 4f 25 3d 4c 5f 86 bd
       0.07743416 0.03169727 0.04035861 -0.06561145
000130 bc ca 86 bd 01 7f 60 3d 88 9f e0 bc bc b6 09 bb
       -0.06581637 0.05480862 -0.02741982 -0.002101346

fc3.0.weight f4 [10, 80]
000000 65 c5 75 3d 42 77 bb 3d 50 8a b4 3c b9 7d 4b bc
       0.060002703 0.09153606 0.022038609 -0.012420111
000010 0e d7 b7 3d d9 de 8c bd b9 a5 8d 3d f7 5a f9 bc
       0.08976565 -0.06878442 0.06916375 -0.030438883
000020 21 92 70 bd ab b0 df 3c 1f f3 bc 3d c9 bb ef bd
       -0.05873311 0.027305922 0.09226059 -0.11705739
000030 a0 37 6d 3d c2 41 85 bd c3 cd a6 bc c3 52 28 3c
       0.057914376 -0.06506683 -0.020361787 0.010273638
000040 9e 95 7c 3d 09 eb ce bd eb 38 cf bd 8e f9 04 3e
       0.061666124 -0.10103423 -0.10118278 0.12985823
000050 cb 47 0e bd c3 f1 72 3d de 65 8b bc 10 6f b6 bd
       -0.034736436 0.059312593 -0.017016347 -0.08907902
000060 af 4b 11 bd ae 49 ad 3d fd 2b 96 bd 23 44 80 3b
       -0.035472568 0.08461319 -0.07332609 0.0039143725
000070 b7 46 33 3d ee 6c d7 bd 18 03 68 3d 9e d0 aa bd
       0.04376861 -0.105188236 0.056643575 -0.08340572
000080 83 f3 a5 3b 1b be b9 bd 9c b2 9b 3d e6 bd c2 3c
       0.0050644292 -0.09069463 0.076024264 0.023772191
000090 6b 9b c7 bd 14 9a c9 bd 97 db b2 bc 36 8b 99 bd
       -0.097464405 -0.09843841 -0.021833224 -0.074972555
0000a0 32 bc 0b 3d ef 8d c4 bd 6e 7c a8 3c 91 46 13 bc
       0.034115024 -0.09597384 0.020567145 -0.008988992
0000b0 ea b8 c6 3d ca ef c7 bd ff cb aa 3d ac 05 e6 3d
       0.09703238 -0.09762533 0.083396904 0.112315506
0000c0 68 73 bc bd f4 b8 d0 3d 97 99 f4 3c 11 7a e2 bb
       -0.092016995 0.10191527 0.029858394 -0.006911524
0000d0 88 9a 74 bd b8 b0 e0 bd aa 22 a1 3d c2 5f e9 bb
       -0.059717685 -0.109712064 0.0786794 -0.007122011
0000e0 57 6d bb bd 1c 20 8c bd 43 6d 15 bd 3a 49 89 bd
       -0.09151714 -0.06842062 -0.036481153 -0.0670342
0000f0 fa 71 04 3d df 42 8f 3d 46 f1 25 bd b0 bb ac 3b
       0.03233526 0.069951765 -0.0405133 0.0052713975
000100 86 73 31 bd 17 f6 b9 3d de d4 1e 3d 8f b7 bd bd
       -0.043323062 0.09080141 0.038777225 -0.09263527
000110 9c 89 39 3d 46 53 ee bc 8c d8 a5 3d db ef 10 3d
       0.04529725 -0.029092442 0.08097944 0.035384994
000120 da 4b d0 bd 2f c5 44 3d d7 8c 54 3d 77 0b 42 bd
       -0.101707175 0.04803961 0.051892128 -0.047374215
000130 3f ab 4b 3d 7e 30 4c 3d f3 3b e0 3c 8d 71 ce bd
       0.04972386 0.049850933 0.027372336 -0.10080252
000140 b7 64 5f 3d bb ec 49 3d 47 1b 2b bd 12 83 b5 bd
       0.05453941 0.04929803 -0.04177406 -0.0886289
000150 84 79 bf 3d 07 30 75 3d e2 9e 8a bd 01 97 1a 3d
       0.09349349 0.059860256 -0.06768586 0.037741665
000160 d6 5b df 3d ff f9 a7 3c 23 d5 e0 bd ad e5 b6 bd
       0.10906188 0.02050495 -0.109781526 -0.08930526
000170 32 d4 04 3c 3b 22 c4 3d 41 fa 24 3d b5 68 1d 3c
       0.008107232 0.095768414 0.040277723 0.009607484
000180 53 0a 1f 3d 95 03 d8 bd 84 4c de bc 4e 83 24 bc
       0.038828205 -0.10547558 -0.027136095 -0.010041071
000190 1c 70 cd bd 65 72 ac 3d a6 6c 77 3c be c8 9c bd
       -0.10031149 0.084202565 0.015101587 -0.07655476
0001a0 31 e8 b8 3d 45 51 d0 bd a9 88 a9 3d c8 47 a1 3d
       0.09028662 -0.10171751 0.08278019 0.07875019
0001b0 2d ef 64 3d 14 88 31 bd 42 e5 13 bd 71 b1 d4 bc
       0.05589216 -0.043342665 -0.03610731 -0.025963517
0001c0 91 1e 82 bd 05 d8 e2 bd 5d 10 d0 3d 16 c5 03 bd
       -0.06353486 -0.11076359 0.10159371 -0.032170378
0001d0 13 8d 9a bd 0d 0a 3f bb 98 ad 17 bd 05 57 b4 3c
       -0.07546439 -0.0029150278 -0.037030786 0.02201415
0001e0 28 e9 79 3d 57 d7 ba bd d8 39 cf 3d 71 c2 fc 3a
       0.06101337 -0.09123104 0.10118455 0.0019284022
0001f0 a0 66 e3 bd 0c ba 9c bd 3a bd 42 bd ab 30 66 3c
       -0.111035585 -0.07652673 -0.04754374 0.014049689
000200 e2 d3 c3 bd 89 6f db bd d5 e1 48 3d 57 4c 05 bd
       -0.09561898 -0.10714633 0.049043495 -0.032543506
000210 2e e8 a6 bc 73 06 30 3d d0 80 c6 3d f2 db 7b 3d
       -0.020374384 0.0429749 0.09692538 0.061489053
000220 7b da c7 3d e1 7e b7 3d 68 95 bb bd 05 ca 95 bd
       0.09758469 0.08959747 -0.09159356 -0.07313923
000230 a3 bf a9 bd da 92 97 3d 8e fd 6d bd b8 08 75 bd
       -0.08288505 0.074010566 -0.058103137 -0.059822768
000240 7a 43 1a bc 1c 46 35 bd 57 57 7c bd b5 36 94 bd
       -0.009415502 -0.044256315 -0.06160673 -0.07236997
000250 98 36 de ba 1b e4 88 3c 97 6d 28 bd a9 7b 34 bc
       -0.0016953526 0.016710332 -0.041120138 -0.011015811
000260 f1 6e d6 3d e3 3b a2 bc 14 a1 71 3d bd e2 91 3d
       0.10470379 -0.019803947 0.058991507 0.07123325
000270 2d e0 db 3d f9 92 53 bd 66 5a a9 bd b4 3f 77 bd
       0.107361175 -0.051653836 -0.08269195 -0.060363486
000280 5f 31 2c bd a4 cb c1 bd 7e 12 92 bd 25 26 85 3d
       -0.04203927 -0.094626695 -0.07132433 0.06501416
000290 99 6a dc 3d fe b5 82 3d 21 a5 6e 3d 78 2c b3 bd
       0.107625194 0.063823685 0.058262948 -0.08748716
0002a0 f6 f4 da 3d da f2 9e bd cd a7 3f bd 09 af 55 3d
       0.10691254 -0.07761164 -0.046790887 0.05216888
0002b0 b3 a1 81 bc 5d 0e f0 bb 79 71 c6 bd ba e3 a2 bd
       -0.015824175 -0.007325931 -0.09689612 -0.07953592
0002c0 d0 58 c9 bd bb 47 36 3d 3a 60 47 bd 88 f1 53 3d
       -0.09831393 0.044502 -0.048675753 0.051744014
0002d0 43 6c b0 3c 03 e5 83 3d 38 e1 e4 3c 72 73 d4 3d
       0.021535998 0.06440165 0.027939424 0.10373582
0002e0 81 c4 c7 3d cb 86 e9 bb 2d ae 96 3d 0a 34 34 bd
       0.09754277 -0.0071266643 0.0735744 -0.04399494
0002f0 9b 76 a0 bc 41 e3 6c bd e8 8a 13 bd 5b cc a0 3d
       -0.019587805 -0.057833914 -0.036021143 0.07851478
000300 77 7a a5 3c e1 73 82 3d 30 4e b9 3d 74 2b 1a bd
       0.020199997 0.063697584 0.09048116 -0.037639096
000310 08 22 83 bd 40 04 5f 3d b8 01 bd bd e6 97 c9 bd
       -0.06402975 0.054447412 -0.092288435 -0.098434255
000320 0a 73 c4 3c 33 74 4e bd 9b 8f bb 3d 69 1e b0 3d
       0.023980636 -0.050403785 0.0915825 0.0859955
000330 c7 b3 e3 3d 82 a1 e1 bd fc 9c 72 bc 66 49 c2 3d
       0.11118274 -0.11017133 -0.014807936 0.09486656
000340 e6 f8 18 3d 11 3e e3 3a b8 9c d4 bc cf 61 90 3d
       0.037346743 0.0017337223 -0.025953636 0.070499055
000350 4f 86 ae bd 4f 8d 11 bd 27 34 85 bd d7 1c b0 bd
       -0.08521711 -0.035535153 -0.06504088 -0.08599251
000360 90 26 9c bd 44 65 91 3d 3b 60 03 bd fa 86 5e 3c
       -0.07624543 0.07099393 -0.032074194 0.013581986
000370 3e 9c bd bd ee bd 3f bc 61 c7 de 3d 37 33 e0 bd
       -0.092583165 -0.011702998 0.10877872 -0.109472685
000380 73 c9 70 bd c5 65 8f bc 39 47 8a 3d 36 a7 00 3d
       -0.058785867 -0.017504582 0.06751866 0.031409465
000390 89 49 a2 3d 1e 7e 54 bc b8 0b 93 3b 42 b6 ac 3c
       0.07924182 -0.012969522 0.004487481 0.021083001
0003a0 72 3f 1b 3d ba 5f 65 3b 52 cf 9c 3d 75 12 40 3d
       0.037902303 0.0034999684 0.07656731 0.046892602
0003b0 b8 f4 8f 3d 67 99 46 3c 08 4f d2 3d 4e 3e db bc
       0.07029098 0.012121535 0.1026898 -0.026763108
0003c0 a1 72 8c bd 9a 3d 72 3d 49 2a 0c 3d 43 dc b0 bd
       -0.06857801 0.05914078 0.034220014 -0.086357616
0003d0 48 90 a8 bd 79 d5 c5 3d 8b e0 8e bd 74 bd b5 bd
       -0.082306445 0.09659857 -0.06976422 -0.08874026
0003e0 63 e9 b4 3d da ff ea bc 90 bd 74 bd 96 a9 11 bd
       0.088335775 -0.028686453 -0.059751093 -0.03556212
0003f0 ef 13 c7 bd ac 79 4a 3d 4e cf 31 3d 36 d1 2d bd
       -0.09720599 0.04943244 0.04341059 -0.042435847

fc3.0.bias f4 [10]
000000 ad 9d 3b 3d 06 fc f6 3b d3 86 9e 3c 33 5e 19 bd
       0.04580467 0.0075373678 0.019351399 -0.03744335
000010 53 6e 86 bd d0 f5 8e 3c de e1 89 bd 7d f6 97 bd
       -0.065640114 0.017451197 -0.06732534 -0.07420061
000020 70 1c 0e ba 0a 90 05 3d
       -0.00054211076 0.03260807
